battery_fastcharge_pack_mbrl/runs/adaptive/diff_surrogate.pt (torch, 744914 bytes, 54 tensors)

weight f4 [128, 13]
0	0xbe28cbb5	-0.16483958
1	0xbcd9a6ac	-0.026568733
2	0x3e80a235	0.25123754
3	0xbe5b5479	-0.21418943
4	0x3d9d19fd	0.076709725
5	0x3e0d1ac1	0.13779737
6	0x3d397520	0.045277715
7	0xbe530d5c	-0.20610565
8	0x3d23ddc8	0.04000643
9	0x3e715076	0.2356585
10	0xbe0304e7	-0.12794839
11	0x3e36e346	0.17860135
12	0xbdd63e8e	-0.1046115
13	0xbce4f996	-0.027951043
14	0x3e365cc7	0.17808829
15	0x3d019636	0.031637393
16	0xbe5690cd	-0.20953675
17	0x3e0a4358	0.13502252
18	0x3e22efb7	0.15911756
19	0x3e10eb67	0.14152299
20	0x3e52ad88	0.2057401
21	0x3dfd6574	0.12372866
22	0x3e3f1956	0.18662009
23	0x3d3a5cb0	0.04549855
24	0x3e24acc8	0.16081536
25	0xbe8b2cc6	-0.27182597
26	0xbd01ed53	-0.03172047
27	0xbcc80d9f	-0.024420558
28	0xbdffcac6	-0.12489848
29	0x3db0043e	0.08594559
30	0x3e59a777	0.21255289
31	0xbe3ed044	-0.18634135
32	0xbdf4d257	-0.11954182
33	0xbdb7d6b0	-0.08976495
34	0x3e5a896c	0.21341485
35	0xbe70b1b6	-0.23505291
36	0x3e8b2c07	0.27182028
37	0xbe3274da	-0.17427388
38	0xbd3cae36	-0.046064578
39	0xbd80fb5c	-0.06297943
40	0xbdc07b6f	-0.09398543
41	0x3e5764bf	0.21034525
42	0xbc3b0148	-0.01141388
43	0xbe4447d9	-0.19168033
44	0xbe338122	-0.17529729
45	0x3d3f4c60	0.046703696
46	0x3d7f9718	0.062399954
47	0xbe1b6864	-0.1517654
48	0x3d41bf68	0.04730168
49	0xbe32e03a	-0.17468348
50	0xbcc9a593	-0.024615085
51	0x3dcd49f1	0.10023869
52	0xbd6279a2	-0.05529178
53	0xbde2bea7	-0.1107152
54	0xbd25d72a	-0.0404884
55	0x3df2be60	0.118527174
56	0xbe2979f8	-0.16550434
57	0xbc58370a	-0.013196716
58	0x3e250ec4	0.16118914
59	0xbb1eae00	-0.0024212599
60	0x3e3afa6c	0.18259591
61	0xbe804e0d	-0.25059548
62	0xbe6d1325	-0.23151834
63	0xbdc28ccd	-0.09499512
64	0x3e38b47f	0.18037604
65	0x3e311e2f	0.1729667
66	0xbe5ecdf9	-0.2175826
67	0x3dbea001	0.09307862
68	0xbd5a15a7	-0.053243306
69	0x3db90827	0.09034758
70	0x3e8add60	0.2712202
71	0xbe8c03bc	-0.273466
72	0x3d48c908	0.049019843
73	0x3e2a868c	0.16652888
74	0x3cbe1c60	0.02320689
75	0xbe2a07d8	-0.16604555
76	0xbd1bfb53	-0.03808148
77	0xbd8eb27e	-0.069676384
78	0x3e6d3138	0.23163307
79	0x3e80e7bc	0.251768
80	0xbdd5bb5d	-0.10436127
81	0xbe93b71d	-0.28850642
82	0xbd953851	-0.07286132
83	0xbe0d539b	-0.13801424
84	0x3e7eae46	0.24871168
85	0x3e860de5	0.26182476
86	0x3e129f9a	0.14318696
87	0xbcc1db20	-0.023664057
88	0xbe88e819	-0.26739576
89	0x3c99b7d3	0.018764412
90	0xbddd1012	-0.10794081
91	0xbb52c03e	-0.0032158042
92	0xbe0753a4	-0.132155
93	0xbd071e75	-0.03298803
94	0x3e3405b6	0.17580304
95	0x3e844161	0.2583113
96	0x3e5a11ca	0.21295848
97	0xbe3433e9	-0.17597927
98	0x3e38f040	0.18060398
99	0x3e38bf22	0.18041661
100	0x3de40204	0.11133197
101	0x3e86ab95	0.26302782
102	0x3ce9abc7	0.028524293
103	0xbcdc3508	-0.026880756
104	0xbe35aa01	-0.17740633
105	0xbd810b27	-0.06300955
106	0x3dc7c37c	0.097540826
107	0xbe4f8cda	-0.20268574
108	0x3d40d570	0.04707855
109	0xbdadcd5f	-0.08486437
110	0xbe6fa3b7	-0.23402296
111	0xbd0ae818	-0.033912748
112	0xbdda859a	-0.10670014
113	0x3e7d83c2	0.24757293
114	0xbe082684	-0.13295943
115	0x3e88982d	0.266786
116	0x3e1f3a75	0.15549643
117	0x3e911256	0.28334302
118	0xbcdb4c59	-0.026769804
119	0xbd0e7d44	-0.03478743
120	0xbe723a75	-0.23655112
121	0x3de4d653	0.111736916
122	0x3e3c80c5	0.18408497
123	0xbce50b56	-0.027959507
124	0xbc10b480	-0.008832097
125	0xbca00ee0	-0.019538343
126	0x3e13bee6	0.1442829
127	0xbe24649c	-0.16054004
128	0x3c749596	0.014928242
129	0x3d9eab63	0.07747533
130	0x3dfeba0a	0.12437828
131	0x3e807a42	0.25093275
132	0xbe6af25d	-0.22944017
133	0x3d757bdd	0.05993258
134	0x3d7f4333	0.062319946
135	0xbde85e9e	-0.11346172
136	0xbd59a951	-0.05313999
137	0xbd82f274	-0.063939005
138	0xbe5ffad2	-0.21873024
139	0xbe64b022	-0.22332814
140	0xbc7fd0c0	-0.015613735
141	0x3e335d3e	0.17516038
142	0x3e88c2d6	0.26711148
143	0x3d05439f	0.03253519
144	0xbe26e6fe	-0.16299054
145	0xbd7902c1	-0.060793642
146	0x3d556327	0.052096512
147	0x3d84812e	0.064699516
148	0x3d2f26d6	0.042761646
149	0xbdde5cff	-0.10857581
150	0x3d7d7a38	0.061884135
151	0x3e7658da	0.24057332
152	0xbe445a6e	-0.19175121
153	0xbda12bb2	-0.07869662
154	0xbe465032	-0.1936653
155	0xbe1133fa	-0.14179984
156	0x3e8921a4	0.26783478
157	0x3e126598	0.14296567
158	0x3ae90e63	0.0017780777
159	0xbcfefb4f	-0.031125693
160	0x3e78a794	0.24282676
161	0x3dd80059	0.10546941
162	0xbc99d1db	-0.018776825
163	0x3da9fd48	0.08300263
164	0xbd2485dc	-0.04016672
165	0x3cb67c10	0.022275954
166	0xbe36fde6	-0.17870292
167	0xbe05313e	-0.13007066
168	0xbe6f9fa5	-0.23400743
169	0x3e29b3a8	0.1657244
170	0xbe09af61	-0.13445808
171	0x3cbd7556	0.02312724
172	0xbe1fa434	-0.15589982
173	0x3cf377af	0.029720156
174	0xbe053935	-0.13010104
175	0x3dd3629f	0.10321545
176	0x3e823975	0.2543446
177	0xbe2a9c12	-0.16661099
178	0xbe712c0e	-0.23551962
179	0x3cbfaf40	0.023398995
180	0x3e6df336	0.23237309
181	0x3e8eaecf	0.27867743
182	0xbe437ae0	-0.19089842
183	0x3e794447	0.24342452
184	0xbd41c9bb	-0.047311526
185	0xbdff0dd3	-0.12453809
186	0xbc7a4def	-0.01527737
187	0xbdd04b38	-0.10170597
188	0x3c36439b	0.011124517
189	0xbcd785a0	-0.026308835
190	0xbe593bb8	-0.21214187
191	0xbe392320	-0.18079805
192	0x3d9492a4	0.07254532
193	0xbd2fc6c8	-0.042914182
194	0xbcbb9520	-0.022898257
195	0x3c98656a	0.018603045
196	0x3d472bce	0.04862576
197	0xbe26c90e	-0.16287634
198	0xbd96fec3	-0.07372811
199	0xbe69caef	-0.2283132
200	0xbd39e12a	-0.04538075
201	0xbcf07959	-0.029354738
202	0x3e2f704c	0.17132682
203	0x3d9a7c2c	0.07543215
204	0xbdde5d00	-0.10857582
205	0x3e3039fa	0.17209616
206	0xbd8a3392	-0.067481175
207	0xbcccf223	-0.025017804
208	0xbe3b24d3	-0.18275766
209	0x3e2bc183	0.16773038
210	0xbd4c9fe9	-0.04995719
211	0x3e0ade03	0.13561253
212	0xbe78b04f	-0.24286006
213	0x3e8354ad	0.2565054
214	0x3e874256	0.26417798
215	0xbe59d759	-0.21273555
216	0x3e8b55fb	0.27214035
217	0x3e117ca0	0.14207697
218	0x3d382d08	0.04496482
219	0x3e18574c	0.14877051
220	0xbdcaded7	-0.099057846
221	0x3e4192bd	0.18903632
222	0xbe80f513	-0.25186977
223	0xbe8a2b12	-0.26985985
224	0x3e7cd027	0.24688779
225	0xbe574240	-0.21021366
226	0xbe53623a	-0.20642939
227	0x3d629920	0.055321813
228	0x3bcff4c0	0.006346315
229	0x3df9ef64	0.12203863
230	0xbd971fee	-0.07379137
231	0x3e57016c	0.20996636
232	0x3da9bf2a	0.08288415
233	0x3d05226b	0.032503527
234	0xbe27c95a	-0.16385403
235	0x3e8ebde0	0.27879238
236	0xbd6068bf	-0.054787394
237	0x3c7ce966	0.015436506
238	0xbe27758c	-0.16353434
239	0xbd75dd68	-0.060025603
240	0x3e5da20e	0.2164385
241	0x3e6db8de	0.23215052
242	0xbe485c1a	-0.19566384
243	0xbbf816c0	-0.0075710714
244	0xbdcb06e4	-0.09913424
245	0xbe216f00	-0.15765
246	0xbd656187	-0.056001212
247	0x3cbde350	0.02317968
248	0xbdb3694f	-0.087603204
249	0xbcd7379c	-0.026271634
250	0xbe851d72	-0.25999027
251	0x3d8175d1	0.063213
252	0x3dbe1c75	0.092827715
253	0x3e73574c	0.2376377
254	0x3e83b1f5	0.25721708
255	0xbe8914b4	-0.26773608

bias f4 [128]
0	0x3e1088f0	0.14114738
1	0x3e7cc7bd	0.24685569
2	0x3de43eae	0.11144768
3	0x3e0a086a	0.13479772
4	0x3c9fafd3	0.01949302
5	0xbdfa5fd0	-0.12225306
6	0xbe01e872	-0.12686327
7	0x3df67986	0.120348975
8	0xbe2b284a	-0.16714588
9	0x3e946556	0.28983563
10	0xbe8f2fef	-0.27966258
11	0x3d06377e	0.032767765
12	0xbdde34b2	-0.108498946
13	0x3dc9c012	0.09851088
14	0x3d91d339	0.07120366
15	0xbcb62372	-0.022233699
16	0x3e68cc18	0.22734106
17	0xbd7b682c	-0.061378643
18	0xbe6ce5e1	-0.23134567
19	0x3cd6f86a	0.0262415
20	0x3e6779ff	0.22605132
21	0xbe3ea538	-0.18617713
22	0x3e5c512b	0.21515338
23	0xbe25889c	-0.16165394
24	0xbdcfab2e	-0.10140072
25	0x3e8dab3c	0.27669704
26	0xbe28d84e	-0.16488764
27	0x3e1246e8	0.14284861
28	0x3df0c694	0.11756626
29	0xbe0e7b82	-0.13914302
30	0xbe7e6827	-0.24844418
31	0xbb9e8b71	-0.0048384
32	0xbdc44f4e	-0.09585439
33	0x3d8ce147	0.06878906
34	0x3dfa4b3e	0.122213826
35	0xbe59caa0	-0.21268702
36	0x3e43b792	0.19112995
37	0x3e85b161	0.26111892
38	0x3da8c64a	0.08240946
39	0x3e740b3d	0.23832412
40	0x3e7eaad1	0.24869849
41	0xbcf3b1ef	-0.029747931
42	0x3ca3de16	0.02000336
43	0xbde216c3	-0.11039498
44	0x3e6716bd	0.22567268
45	0x3e762052	0.24035767
46	0xbdabf0cd	-0.083955385
47	0x3dbb4cac	0.091454834
48	0xbc8e487e	-0.017368551
49	0xbced724e	-0.028985169
50	0x3e097ef7	0.1342734
51	0xbdb854d3	-0.09000554
52	0x3e10e767	0.14150773
53	0xbca15cfd	-0.01969766
54	0x3db3faa1	0.08788038
55	0xbcb014b1	-0.021494241
56	0xbcc4db4a	-0.024030346
57	0xbe6ede1f	-0.2332692
58	0x3d93641c	0.07196829
59	0xbe4dd946	-0.20102414
60	0x3e823749	0.25432804
61	0x3e805480	0.25064468
62	0x3e5ac417	0.21363865
63	0x3dd333bd	0.10312603
64	0x3d88e045	0.06683401
65	0xbdb276b6	-0.087140486
66	0x3dca42cf	0.09876024
67	0xbae3da30	-0.001738375
68	0xbca884c1	-0.020571114
69	0xbe6dfa13	-0.23239927
70	0x3dd17e0b	0.10229119
71	0xbd710df8	-0.058851212
72	0x3e90e6b3	0.2830101
73	0xbbb714ae	-0.005587182
74	0xbcd8dd15	-0.026472608
75	0x3e6148b1	0.22000386
76	0x3e56a176	0.2096003
77	0xbe0b9e16	-0.13634524
78	0x3d5a8183	0.05334617
79	0x3e6cbaf0	0.23118186
80	0xbe35549e	-0.1770806
81	0x3e01b71b	0.12667505
82	0xbd64ae5c	-0.055830345
83	0xbde3f590	-0.11130822
84	0x3d76b38d	0.060229827
85	0xbd219dc4	-0.039457098
86	0x3d4c6055	0.049896557
87	0xbe69debf	-0.22838877
88	0x3cb819b6	0.022473197
89	0x3dd4da77	0.10393231
90	0x3e62298d	0.22086163
91	0x3e6f325f	0.23359059
92	0xbe051701	-0.12997057
93	0x3e2d4bfd	0.16923518
94	0x3e345538	0.17610633
95	0x3e2e2ed4	0.17010051
96	0xbda3170c	-0.0796338
97	0x3e3e8a19	0.18607368
98	0x3ddbb54b	0.10727938
99	0x3db93487	0.09043222
100	0xbe0c9ac7	-0.13730918
101	0x3e613db5	0.21996196
102	0xbe593a65	-0.21213682
103	0x3d953393	0.072852276
104	0x3e286cc7	0.16447745
105	0x3d97d158	0.07412976
106	0xbe78c96b	-0.24295585
107	0x3e8bcc06	0.27304095
108	0x3e89ca2c	0.26912057
109	0xbddabe78	-0.1068086
110	0x3e880b80	0.26571274
111	0x3e8cdea4	0.2751361
112	0xbe026a67	-0.12735902
113	0x3d6dba31	0.058038894
114	0xbd58469b	-0.05280171
115	0xbdebf832	-0.11521949
116	0xbe2328a5	-0.15933473
117	0xbe108acf	-0.14115451
118	0xbe80adef	-0.251327
119	0x3e51157a	0.20418349
120	0x3ce567d1	0.028003605
121	0xbd187c06	-0.037227653
122	0xbcfac94a	-0.03061356
123	0x3d202edc	0.03910719
124	0x3e36942a	0.17829958
125	0xbdf9c237	-0.12195247
126	0x3e945580	0.2897148
127	0xbd19ba96	-0.037531458

weight f4 [128, 128]
0	0xbc8607dd	-0.016361171
1	0x3d6e43f0	0.05817026
2	0x3d7aab91	0.061198775
3	0xbd5ffd12	-0.054684706
4	0x3d3ced31	0.04612464
5	0x3dd0619e	0.10174869
6	0x3d903d97	0.07042997
7	0x3d41c4aa	0.047306694
8	0x3af1b1a8	0.0018439787
9	0x3d59d6db	0.053183418
10	0xbc262178	-0.0101398155
11	0xbd4b84e4	-0.04968728
12	0x3d6e327e	0.05815362
13	0x3d983c58	0.07433385
14	0xbdac5753	-0.08415093
15	0x3d8ad240	0.06778383
16	0x3d7c2c8c	0.06156592
17	0x3ab89aee	0.0014084259
18	0xbda644f4	-0.081186205
19	0x3da21b68	0.079153836
20	0xbd4e4976	-0.050363027
21	0x3dabcb77	0.08388417
22	0x3dad61ba	0.084659055
23	0x3c6e017e	0.014526723
24	0x3c93d74d	0.018047
25	0xbcb1d6bf	-0.021708844
26	0x3c985c35	0.018598655
27	0xbc96a607	-0.018389715
28	0xbcda85c8	-0.02667512
29	0xbd5300af	-0.051514324
30	0x3d76fdd8	0.060300678
31	0x3b02dbf9	0.001996754
32	0xbdc8c7f9	-0.09803767
33	0x3c2270cd	0.009914589
34	0xbb8880cc	-0.0041657444
35	0xbddaa48e	-0.106759176
36	0xbbe4b698	-0.0069797747
37	0x3ddb1874	0.106980234
38	0x3ddf50be	0.10904072
39	0xbd22b76a	-0.0397257
40	0x3d0cf94a	0.034417428
41	0xbd8c2e01	-0.06844712
42	0x3dc0686e	0.093949184
43	0x3d6a62ff	0.057223316
44	0x3c8cc9b3	0.017186021
45	0xbc913907	-0.017727388
46	0xbcc509a0	-0.024052441
47	0xbd587d97	-0.052854147
48	0xbd77b360	-0.0604738
49	0x3d678407	0.056522395
50	0xbd500aeb	-0.050791662
51	0x3da1b758	0.07896298
52	0x3d65e604	0.056127563
53	0x3d797706	0.060904525
54	0xbd846ed8	-0.06466454
55	0x3da7de55	0.08196703
56	0xbd0aea87	-0.03391507
57	0xbd26fc4e	-0.04076796
58	0xbd6cc5be	-0.05780577
59	0xbc137d75	-0.009002079
60	0xbbad9fff	-0.005298614
61	0xbd8ec351	-0.069708474
62	0xbd55bd56	-0.052182518
63	0x3bce5bad	0.0062975497
64	0xbd46ca23	-0.048532616
65	0x3ce488a2	0.027897183
66	0x3d740099	0.059570882
67	0x3da73547	0.08164459
68	0x3cf86f5f	0.030326543
69	0x3ce00085	0.027343998
70	0xbdc61a06	-0.09672932
71	0x3d8a5790	0.067549825
72	0xbd73ac33	-0.059490394
73	0x3c993cb7	0.018705709
74	0x3bbf4470	0.005837016
75	0x3d570901	0.05249882
76	0xbcddfe7e	-0.02709889
77	0x3c4da90c	0.012552511
78	0xbd678d20	-0.05653107
79	0x3cd23c83	0.02566362
80	0x3cd676b1	0.026179643
81	0xbd7b525d	-0.061357845
82	0x3d6c155c	0.057637557
83	0xbbf2ba5b	-0.007407469
84	0xbd8c8ecf	-0.06863176
85	0xbd0ea782	-0.034827717
86	0xbd3793a7	-0.044818547
87	0x3dddf38a	0.10837467
88	0x3dd0c8d8	0.10194558
89	0x3d8f4ae2	0.06996705
90	0x3dcb048d	0.09912977
91	0x3d6e8cba	0.058239676
92	0xbcf6008d	-0.03002956
93	0xbce96957	-0.028492613
94	0x3d86047f	0.06543826
95	0xbd5170e1	-0.05113304
96	0x3d8113a2	0.06302573
97	0xbd39de27	-0.045377877
98	0xbd825db2	-0.06365527
99	0xbb84bd40	-0.0040508807
100	0x3d18549e	0.037190072
101	0xbd17240b	-0.036899608
102	0xbd2da1e2	-0.04239071
103	0x3d0a0721	0.033698205
104	0x3dc3d3fc	0.09561917
105	0x3c9aaa05	0.0188799
106	0x3c60d580	0.013722777
107	0x3b801689	0.0039089364
108	0xbb67898b	-0.0035329785
109	0x3a8f133e	0.0010915769
110	0x3d0113cb	0.031513017
111	0x3db03e71	0.0860566
112	0x3b3b6dc1	0.0028599354
113	0xbd3a0ff9	-0.04542539
114	0x3da8618c	0.082217306
115	0x3cd7f497	0.026361747
116	0x3db59c85	0.08867744
117	0x3d7ce9ee	0.06174653
118	0xbdc585a6	-0.09644632
119	0xbcd411dd	-0.025887424
120	0x3c3e4974	0.011614192
121	0xbd802b84	-0.062583
122	0xbd2d7c6c	-0.042354986
123	0x3d09b9cd	0.03362446
124	0xbcaa2ae1	-0.0207724
125	0x3cdd55f2	0.027018521
126	0x3dd7cbe7	0.10536938
127	0x3dcb5244	0.099278
128	0x3d835063	0.06411817
129	0xbd35dc03	-0.044399273
130	0xbd76a0d1	-0.06021196
131	0x3ce20e97	0.027594848
132	0x3cab356c	0.020899497
133	0x3d96e17b	0.07367226
134	0x3cd86a5c	0.026417904
135	0xbd078285	-0.033083457
136	0x3c37bcb2	0.011214422
137	0xbc782759	-0.0151461
138	0xbb6ff1bd	-0.0036612593
139	0x3d4e23ed	0.05032723
140	0x3d99d8ce	0.07512055
141	0xbd6e210b	-0.05813698
142	0x3a672d3a	0.000881869
143	0xbd072186	-0.032990955
144	0x3dc1e809	0.09468085
145	0xbd96474a	-0.07337816
146	0x3d6e1b12	0.058131285
147	0xbca56f92	-0.020194802
148	0x3be6bc1f	0.0070414688
149	0xbddcb190	-0.10776055
150	0xbc3c94c3	-0.011510077
151	0x3ca70ee5	0.020392844
152	0x3cd3e696	0.025866788
153	0x3d5aa974	0.05338426
154	0xbd417032	-0.04722614
155	0x3d5c7817	0.053825464
156	0xbdc62302	-0.09674646
157	0x3d0e312a	0.034714855
158	0x3d241096	0.04005488
159	0x3d0a388a	0.033745326
160	0xbca36a8f	-0.019948272
161	0xbdde891f	-0.108659975
162	0x3c37aca6	0.011210596
163	0xbc7cb4c8	-0.015423961
164	0x3db1ae25	0.086757936
165	0xbd94375a	-0.0723712
166	0xbc846c9d	-0.016165072
167	0x3cef237a	0.029191721
168	0xbdb3e4d8	-0.08783883
169	0xbcf6c85f	-0.030124841
170	0x3d6a0294	0.057131365
171	0x3dec70fc	0.115449876
172	0x3bb45506	0.0055032996
173	0xbd8fef55	-0.07028071
174	0xbdbd874c	-0.092543215
175	0xbcce48c0	-0.025181174
176	0x3d6f5a95	0.058435995
177	0x3ddf72e7	0.10910588
178	0xbd4f4a3d	-0.05060791
179	0xbd4bcad7	-0.04975399
180	0x3c1124bf	0.008858859
181	0x3dd6c443	0.10486653
182	0x3d64d309	0.05586532
183	0x3d69564d	0.05696707
184	0x3c973191	0.018456252
185	0xbd59ae04	-0.05314447
186	0x3ca534da	0.020166803
187	0xbccd8118	-0.02508597
188	0x3cd4880b	0.025943777
189	0x3d8f32e1	0.06992126
190	0xbd5aded1	-0.05343515
191	0x3dbe9bad	0.093070365
192	0x3ba4f498	0.0050340407
193	0xbc9965f4	-0.018725373
194	0x3dc48100	0.09594917
195	0x3d3615c0	0.044454336
196	0xbd89a230	-0.06720388
197	0xbd9ba1c4	-0.07599214
198	0x3d71c172	0.059022374
199	0xbd9546b5	-0.07288877
200	0x3d655881	0.055992607
201	0x3d61ee2d	0.055158783
202	0x3dce5e97	0.10076635
203	0xbd31bf9a	-0.043395616
204	0x3d450fd8	0.048110813
205	0x3cdaf937	0.026730163
206	0x3cde4cb4	0.027136184
207	0x3d49717f	0.049180504
208	0xbbee2eaa	-0.0072687464
209	0xbd6b5230	-0.057451427
210	0x3d879d2d	0.06621776
211	0xbd6cd568	-0.057820708
212	0x3db49628	0.088177025
213	0x3c83d4a8	0.016092613
214	0x3d946893	0.072465084
215	0x3ce225af	0.02760586
216	0x3c7dcc75	0.015490641
217	0x3dbf21b0	0.09332597
218	0x3c1f56c6	0.009725278
219	0x3dad0fc1	0.084502704
220	0xbc50dce9	-0.012747982
221	0x3d1b8080	0.037964344
222	0xbc10b228	-0.008831538
223	0x3db24b40	0.08705759
224	0x3d221816	0.03957375
225	0xbd55577b	-0.05208538
226	0x3cb208b2	0.021732662
227	0x3d5a3227	0.053270485
228	0x3daee8ec	0.0854052
229	0x3dab515e	0.08365129
230	0xbd4f9485	-0.05067875
231	0xbc2adb04	-0.010428194
232	0x3db933ea	0.09043105
233	0xbba7d435	-0.0051217326
234	0xbd79eeee	-0.061018877
235	0x3d9f4dde	0.07778524
236	0xbd8942a9	-0.067021675
237	0x3a2d7f9a	0.00066184404
238	0xbce9c54d	-0.028536463
239	0x3c7de2fe	0.015496014
240	0xbcf64688	-0.030062929
241	0xbcdfbba2	-0.02731115
242	0x3c7a8750	0.01529105
243	0xbd446e3d	-0.047956694
244	0xbd5ab3ce	-0.05339413
245	0x3d9809e3	0.07423761
246	0xbc8855fd	-0.016642565
247	0xbd50360e	-0.0508328
248	0xbd3e852b	-0.046513718
249	0xbc274623	-0.010209593
250	0xbd0d14be	-0.03444361
251	0x3da29bb5	0.07939855
252	0x3db2af06	0.08724789
253	0x3cf6685d	0.030079061
254	0x3a47cdba	0.0007621903
255	0x3d83ef5a	0.06442137

bias f4 [128]
0	0xbd8d8076	-0.069092676
1	0x3dd37a96	0.10326116
2	0x3da4b8a3	0.08043029
3	0x3d9728b5	0.07380811
4	0x3de834af	0.113381736
5	0x3d0f90a4	0.03505005
6	0xbc226a50	-0.009913042
7	0xbd979188	-0.07400805
8	0x3c7e15b2	0.015508102
9	0x3b1bbe7e	0.0023764665
10	0x3d99f8bc	0.075181454
11	0xbd06cafe	-0.032908432
12	0xb93065fa	-0.00016822657
13	0x3d1438e5	0.03618707
14	0xbd81648c	-0.06318006
15	0x3d4c3fa0	0.049865365
16	0xbcd9bb4a	-0.026578564
17	0x3d858063	0.065186284
18	0x3b939360	0.0045036525
19	0xbbf0f120	-0.007352963
20	0x3d78c028	0.06073013
21	0x3c8f7d65	0.017515847
22	0xbd7a646b	-0.061130922
23	0xbdcb9ede	-0.09942411
24	0xbbf1a000	-0.00737381
25	0xbc609dcb	-0.013709496
26	0xbcfba181	-0.03071666
27	0x3bf4e234	0.0074732546
28	0x3d6152cc	0.055010602
29	0xbda135cd	-0.0787159
30	0xbd5e5fd1	-0.054290596
31	0xbce9d843	-0.028545504
32	0xbd660d7a	-0.056165196
33	0x3d6cdd64	0.057828322
34	0xbcc5f128	-0.024162844
35	0xbda5ce07	-0.08095937
36	0x3d06e446	0.032932542
37	0x3d395eba	0.045256354
38	0xbd59de21	-0.053190354
39	0x3db8b0b4	0.090180784
40	0xbb87b5fa	-0.0041415663
41	0xbd50e5e7	-0.051000502
42	0x3d5a877d	0.053351868
43	0xbd33c1f9	-0.04388616
44	0x3db7a2f2	0.08966626
45	0x3dce673f	0.100782864
46	0xbd191260	-0.03737104
47	0xbcfcf269	-0.030877309
48	0xbaed3675	-0.0018097894
49	0x3d728d0f	0.059216555
50	0xba191838	-0.00058400957
51	0xbc2ab436	-0.010418942
52	0x3ca5ab9e	0.020223435
53	0x3d8f413e	0.06994866
54	0xbdb362cd	-0.08759079
55	0x3d651214	0.055925444
56	0xbcbf8881	-0.02338052
57	0xbdb0d08c	-0.08633527
58	0xbc3a6657	-0.011376939
59	0x3d9ef4f1	0.077615626
60	0xbdb67da3	-0.08910682
61	0x3da9e966	0.0829647
62	0xbc1cb2fb	-0.009564157
63	0xbd6545d0	-0.05597478
64	0x3d024102	0.031800278
65	0x3d80ae4d	0.06283245
66	0xbda8d17e	-0.082430825
67	0x3c53cedd	0.012927738
68	0x3d0d988f	0.03456932
69	0x3b4c88ec	0.0031209541
70	0x3c4d2527	0.012521065
71	0x3d77d754	0.060508087
72	0x3ce07a59	0.02740209
73	0xbdc78037	-0.09741252
74	0xbd7f3e10	-0.062315047
75	0xbd51c6a1	-0.051214818
76	0xbad2da30	-0.0016086753
77	0x3db4ba34	0.08824578
78	0x3ba0d9ce	0.004908777
79	0x3d7b9524	0.06142153
80	0xbd34a302	-0.04410077
81	0x3d30f5f6	0.043203317
82	0xbd728aa5	-0.059214253
83	0x3c5c35a8	0.013440527
84	0x3daec0da	0.08532877
85	0xbb96d0f5	-0.0046025463
86	0x3ce11e09	0.027480142
87	0x3ba52e17	0.0050408947
88	0x3d72a79c	0.059241876
89	0xbce07775	-0.027400712
90	0x3d25326d	0.040331293
91	0xbd689b04	-0.05678846
92	0xbd291194	-0.04127653
93	0x3a3798ab	0.00070036453
94	0xbbb22f6c	-0.005437782
95	0xbd21fd48	-0.03954819
96	0x3cfc6b47	0.030812873
97	0x3d6a8bae	0.057262115
98	0xbd7dfbcd	-0.062007714
99	0xbce02981	-0.02736354
100	0x3d56fe4c	0.05248861
101	0x3dcf041d	0.101082064
102	0xbda0a124	-0.07843235
103	0x3c952a10	0.018208534
104	0x3d331816	0.043724142
105	0xbda4d21a	-0.08047886
106	0x3da0ddd2	0.07854809
107	0xbda811e7	-0.082065396
108	0x3d64caf2	0.055857606
109	0xbd7fb2bb	-0.06242631
110	0xbdafffac	-0.085936874
111	0xbd3cb369	-0.046069536
112	0x3da969fb	0.08272167
113	0x3ccf4ea8	0.02530606
114	0x3dbee4f1	0.09321011
115	0xbc683d53	-0.014174777
116	0xbd92c3d3	-0.07166257
117	0xbbb72215	-0.0055887797
118	0x3af6ee54	0.0018839338
119	0xbd843a61	-0.064564474
120	0xbbe9e4f9	-0.0071378914
121	0x3c3c984d	0.011510921
122	0x3d8e2731	0.06941069
123	0xbd481f58	-0.048858017
124	0x3da374ae	0.07981239
125	0x3db7e5f0	0.08979404
126	0x3dd3c7be	0.10340832
127	0xbcc620c8	-0.024185553

weight f4 [12, 128]
0	0xbdca8432	-0.098884955
1	0xbdba8611	-0.091076024
2	0xbd7ae6ee	-0.061255388
3	0x3c6b70f4	0.014370192
4	0x3c43d1e2	0.011951895
5	0x3d8048a2	0.062638536
6	0x3ccd3b23	0.025052613
7	0x3ccd24bc	0.02504193
8	0x3d8ead16	0.06966607
9	0x3c83b9c7	0.016079796
10	0x3d882cca	0.06649168
11	0x3cd645a9	0.026156263
12	0x3dd274d2	0.10276188
13	0x3c5f69f7	0.013636104
14	0xbda4a360	-0.08038974
15	0xbde215ac	-0.1103929
16	0xbdbf698c	-0.09346303
17	0xbc8e0fc9	-0.017341511
18	0x3d8b691d	0.06807158
19	0x3d44a154	0.048005417
20	0xbd858e57	-0.0652129
21	0x3d5388a4	0.051643983
22	0x3c75f63f	0.015012323
23	0x3d2a2932	0.041543193
24	0x3dbf6a9f	0.09346508
25	0xbd8d73b3	-0.069068335
26	0xbdd9bab9	-0.10631318
27	0x3b2ec0c4	0.002666519
28	0x3d50b88d	0.05095725
29	0xbd9f4c4e	-0.07778226
30	0xbd8f1a76	-0.06987469
31	0xbd9bded3	-0.0761086
32	0xbce73585	-0.028223762
33	0x3d288849	0.041145597
34	0xbd1e7a0d	-0.038690615
35	0xbd908853	-0.07057252
36	0xbcbcf2c4	-0.023064978
37	0x3d2b650d	0.041844416
38	0x3bf10460	0.007355258
39	0x3d30e107	0.043183353
40	0x3bd75fe7	0.0065727117
41	0x3d03527b	0.03206108
42	0x3de552c0	0.11197424
43	0xbcef639c	-0.029222302
44	0xbd9cc2a7	-0.076543145
45	0xbda6cfc9	-0.081451006
46	0x3d4c8e8b	0.049940627
47	0xbd29e560	-0.041478515
48	0xbdca5219	-0.0987894
49	0xbcc8b873	-0.024502015
50	0xbd976762	-0.073927656
51	0x3cb2dc3e	0.021833535
52	0x3cf8f355	0.030389467
53	0x39855fdd	0.0002543916
54	0xbcc99a93	-0.02460984
55	0x3d84416d	0.064577915
56	0x3ccf4ba8	0.02530463
57	0x3d7a8419	0.061161134
58	0x3d982432	0.07428779
59	0x3d16afb3	0.036788654
60	0x3d0f37b1	0.03496522
61	0xbd0f28ec	-0.034951136
62	0xbc126b78	-0.008936755
63	0xbbbe059f	-0.00579901
64	0xbc77b51d	-0.015118864
65	0x390296a0	0.00012453878
66	0x3c6b3773	0.014356482
67	0xbd182681	-0.037146095
68	0x3d90bacf	0.07066881
69	0xbcb82613	-0.022479093
70	0x3ca77ac2	0.020444278
71	0xbd8564e5	-0.06513385
72	0x3d205a4e	0.03914862
73	0x3d7f4ca5	0.062328953
74	0xbd8a82e5	-0.067632474
75	0xbc8fcbcf	-0.017553238
76	0x3dd7ee9a	0.105435565
77	0x3dcbe30f	0.09955417
78	0xbc960ebc	-0.018317573
79	0xbbc89698	-0.006121468
80	0xbda4008a	-0.08007915
81	0xbd18fde5	-0.037351508
82	0xbde4b2cd	-0.11166916
83	0x3d989e48	0.07452065
84	0xbdaca239	-0.08429379
85	0xbcee8efb	-0.029120913
86	0xbcc88ba5	-0.02448065
87	0x3cc2b14b	0.02376618
88	0xbc6f172d	-0.014592928
89	0x3d576662	0.052587874
90	0xbd94f8c0	-0.07274008
91	0xbd135d89	-0.035977874
92	0x3da3e864	0.08003309
93	0x3ddde4e6	0.108346745
94	0x3a1cfe1a	0.0005988792
95	0xbce88e92	-0.028388295
96	0xbdc9232b	-0.09821161
97	0x3d0debaf	0.034648594
98	0x3c0f99ec	0.008764725
99	0x3d44242d	0.047886062
100	0x3d8f52b8	0.06998199
101	0x3d460153	0.048341107
102	0x3d0a1102	0.033707626
103	0xbccb8e3c	-0.024848096
104	0x3b98c5e0	0.0046622604
105	0xbd3481ee	-0.044069223
106	0xbd2ee4f4	-0.042698815
107	0x3d8cb1ba	0.06869836
108	0xbdc7fbe8	-0.09764844
109	0xbc0a4768	-0.008439876
110	0x3b0ba3a0	0.0021307245
111	0xbd353b4e	-0.04424601
112	0xbd660599	-0.056157682
113	0x3bbfe30f	0.005855925
114	0x3c5a4001	0.013320924
115	0x3cd7b56b	0.026331624
116	0xbbfeab20	-0.0077718645
117	0x3bda1b56	0.0066560907
118	0x3ce3b8b5	0.027798036
119	0x3d7dc03b	0.061950903
120	0x3da7d9c3	0.081958316
121	0xbda575f8	-0.080791414
122	0x3cbea96f	0.023274152
123	0xbca4c6c8	-0.020114318
124	0xbc167d9c	-0.009185221
125	0x3d40e576	0.04709383
126	0xbd9d08b1	-0.076676734
127	0x3c32a48e	0.010903491
128	0x3d92e88b	0.0717326
129	0xbd4b40a7	-0.049622204
130	0xbd24c8cc	-0.040230557
131	0x3d5b67ca	0.053565778
132	0xbc465f7e	-0.012107728
133	0x3c3ca5bd	0.011514124
134	0xbd0ab46e	-0.033863477
135	0xbd8c611c	-0.0685446
136	0x3d1e273d	0.03861164
137	0xbd37a4ab	-0.044834774
138	0x3c9f9630	0.019480795
139	0xbc28a441	-0.010293067
140	0xbd5613fd	-0.052265156
141	0x3dc941a6	0.098269746
142	0x3b13bf80	0.0022544563
143	0xbd61a8a1	-0.055092458
144	0xbd1632b3	-0.036669444
145	0xbc49bde4	-0.01231334
146	0xbd2a4521	-0.041569833
147	0x3d6b7e7d	0.057493676
148	0x3d3b6599	0.045751188
149	0xbdacfecc	-0.08447036
150	0xbd2176cc	-0.039419934
151	0xbda439ba	-0.08018823
152	0x3d6291a0	0.05531466
153	0xbcb858de	-0.022503313
154	0x3dbbbb87	0.091666274
155	0x3dcd46a6	0.10023241
156	0x3b163f9c	0.0022926098
157	0xbd7d75d9	-0.061879966
158	0x3cd36c3c	0.025808446
159	0x3c113bd8	0.0088643655
160	0x3d96218a	0.07330616
161	0xbb9ac520	-0.004723206
162	0x3dbec918	0.09315699
163	0xbd169773	-0.036765527
164	0x3c113dab	0.0088648
165	0x3d2a1afb	0.041529637
166	0x3d964ec7	0.07339244
167	0xbdd9df81	-0.10638333
168	0x3dd9d134	0.106356055
169	0xbc3d1a22	-0.011541875
170	0xbdb63af8	-0.08897966
171	0x3cc9211c	0.02455192
172	0x3d23c45c	0.039982185
173	0x3c9e16f0	0.019298047
174	0x3db232c8	0.08701092
175	0x3c67dec1	0.01415223
176	0x3db2ceab	0.08730825
177	0xbdae3a7d	-0.085072495
178	0x3c002868	0.007822134
179	0x3d8fa517	0.0701391
180	0x3cfe18f2	0.031017754
181	0xbc2bcb6f	-0.010485514
182	0xbd0a6668	-0.03378907
183	0xbd91efde	-0.07125829
184	0xbc35c1c8	-0.011093564
185	0x3d946c17	0.07247179
186	0xbd5f4326	-0.054507397
187	0xbccbe5e8	-0.024889901
188	0xbd1652e7	-0.036700156
189	0xbd43f0fc	-0.047837242
190	0xbc410f5c	-0.011783447
191	0x3d8a1c3c	0.067436665
192	0x3d57956b	0.05263273
193	0xbcba53eb	-0.022745093
194	0x3d6ebd9d	0.058286298
195	0x3c6730f6	0.014110794
196	0x3dd99763	0.10624578
197	0x3cbc2cef	0.022970645
198	0xbdce4c88	-0.10073191
199	0xbde9b0c0	-0.114106655
200	0x3dbc0a4b	0.09181651
201	0x3d488cc5	0.048962373
202	0xbc80b96d	-0.015713418
203	0xbd59e3fd	-0.053195942
204	0x3dc2238f	0.094794385
205	0x3d770608	0.060308486
206	0xbd1b61a4	-0.037934914
207	0x3d609d24	0.05483736
208	0x3db5e440	0.08881426
209	0x3cdf8b85	0.027288208
210	0xbc325c52	-0.010886269
211	0xb9e0779e	-0.0004281373
212	0xbc62abb6	-0.013834884
213	0xbd05ce8a	-0.032667674
214	0x3d81ef56	0.06344478
215	0xbdc81d6e	-0.09771238
216	0xbd859ce6	-0.065240666
217	0xbded226d	-0.11578832
218	0xbce1b6ec	-0.027553044
219	0xbde92fa5	-0.113860406
220	0x3d912605	0.0708733
221	0xbbbd7abd	-0.005782454
222	0x3d88f074	0.06686488
223	0xbd14384d	-0.036186505
224	0x3dbd2eb6	0.09237425
225	0xba3f4306	-0.0007296059
226	0x3d2cdef0	0.042204797
227	0xbca58332	-0.02020416
228	0x3c2b5295	0.010456701
229	0xbd6bad4c	-0.057538316
230	0x3cd2a6ec	0.02571436
231	0x3d8d2c0d	0.06893168
232	0x3d40dfae	0.047088318
233	0xbb5c88b1	-0.003365081
234	0x3dcc670f	0.09980594
235	0x3c8e7ff4	0.017394997
236	0x3cec2627	0.028826786
237	0xbd52e2f9	-0.05148599
238	0x3d58c06a	0.052917875
239	0xbdac6c69	-0.08419115
240	0xbdda4899	-0.10658378
241	0xbb2d6b18	-0.0026461538
242	0x3dbb587c	0.091477364
243	0xbca8ff72	-0.020629618
244	0xbd66fb76	-0.056392156
245	0x3d222677	0.039587464
246	0xbc87ba00	-0.016568184
247	0x3cbd95aa	0.023142654
248	0xbd1202d6	-0.035647236
249	0xbc15ad56	-0.009135565
250	0xbdc8029c	-0.09766123
251	0x3d00ee76	0.031477414
252	0x3db90d35	0.09035722
253	0xbd426918	-0.047463506
254	0xbd64a7a3	-0.055823933
255	0x3da04dea	0.07827361

bias f4 [12]
0	0x3d84e42c	0.06488833
1	0xbd271d2b	-0.0407993
2	0x3d981e05	0.07427601
3	0xbd3ee253	-0.04660256
4	0xbac140e2	-0.0014744068
5	0xbcae3f6b	-0.021270474
6	0x3d97112b	0.073763214
7	0xbdb52119	-0.088442035
8	0x3befd204	0.007318737
9	0x3d859bad	0.065238334
10	0x3d7f0994	0.062264994
11	0xbd025d24	-0.031827107

weight f4 [128, 13]
0	0xbdcde66e	-0.100537166
1	0x3e2d3f81	0.16918756
2	0xbd57d9d5	-0.052697975
3	0xbe6fdfe8	-0.23425257
4	0x3dffa0d1	0.12481845
5	0x3c3e5286	0.011616355
6	0xbca423a4	-0.020036526
7	0xbd052c30	-0.032512844
8	0xbe7de8d1	-0.24795844
9	0x3e3fde72	0.187372
10	0x3d075260	0.033037543
11	0x3e663542	0.22481254
12	0xbcf27575	-0.029597024
13	0x3e6ffc20	0.23436022
14	0xbdde232c	-0.10846552
15	0xbe80ccdf	-0.25156304
16	0xbe3fab20	-0.18717623
17	0x3cca9804	0.02473069
18	0xbd488cf2	-0.04896254
19	0x3d901776	0.07035725
20	0xbe8a852a	-0.2705472
21	0x3e30d442	0.1726847
22	0xbdb1426a	-0.086552456
23	0x3e8ab3d1	0.27090314
24	0xbcdce9ab	-0.02696689
25	0xbe252c71	-0.16130234
26	0x3c97c190	0.018524915
27	0x3d9585a2	0.07300879
28	0x3d1e8c12	0.0387078
29	0xbe895d89	-0.26829174
30	0xbd970b22	-0.0737517
31	0xbd814d80	-0.0631361
32	0xbdbad1ce	-0.09122048
33	0xbe3882a6	-0.18018588
34	0xbe4f8400	-0.20265198
35	0xbe2c4015	-0.1682132
36	0xbdd61014	-0.104522854
37	0x3e23ad81	0.15984155
38	0x3e3bca65	0.18338926
39	0x3dbe8dec	0.09304413
40	0xbdcb228f	-0.09918701
41	0x3e651eea	0.22375074
42	0x3e25253d	0.16127487
43	0xbe4d66c7	-0.20058738
44	0x3d055fb2	0.032561965
45	0x3dd1cb06	0.10243802
46	0x3de40398	0.11133498
47	0xbe4aa500	-0.19789505
48	0x3d163a48	0.036676675
49	0x3e50fc7c	0.20408815
50	0x3ce11e14	0.027480163
51	0x3ab954d6	0.0014139663
52	0xbce17ffc	-0.027526848
53	0x3c72e4fe	0.014825104
54	0x3c1ab4f4	0.009442557
55	0xbd95e694	-0.0731937
56	0x3e1b22a4	0.15149933
57	0x3e80d0f5	0.25159422
58	0xbd96a209	-0.073551245
59	0xbd0d3810	-0.034477293
60	0xbe151fac	-0.14562863
61	0xbe4cd874	-0.20004445
62	0x3dc8abf8	0.097984254
63	0x3d8bd148	0.068270266
64	0xbd1e7a93	-0.038691115
65	0xbc8f1582	-0.01746631
66	0x3e047d5c	0.12938446
67	0xbe8adb81	-0.27120593
68	0xbe81baee	-0.2533793
69	0x3dce1407	0.10062414
70	0x3e2c3e81	0.16820718
71	0x3e8468c4	0.2586118
72	0xbc8c9730	-0.017161936
73	0x3e85c68d	0.26128045
74	0xbe1cbc72	-0.15306261
75	0x3dcad10c	0.09903154
76	0xbde92c3e	-0.11385392
77	0xbe169412	-0.14704922
78	0x3d291571	0.041280214
79	0x3e7f0ab3	0.24906425
80	0x3e83895b	0.2569073
81	0xbe2e0c56	-0.16996893
82	0x3e3e9c3b	0.18614285
83	0xbe734898	-0.23758161
84	0xbd52116f	-0.051286157
85	0x3e54b496	0.20772013
86	0xbdbc5ba8	-0.091971695
87	0x3dcada04	0.099048644
88	0x3e6a0ef6	0.2285727
89	0x3d48ce3a	0.049024798
90	0x3e148110	0.14502358
91	0x3dc90240	0.09814882
92	0xbdc756da	-0.097333625
93	0xbe257346	-0.16157255
94	0xbe8033b7	-0.25039455
95	0xbe714e8f	-0.23565124
96	0xbe0ef1d5	-0.13959439
97	0x3e4a4b67	0.19755326
98	0x3d03a9b8	0.03214428
99	0xbe1f1bec	-0.15537995
100	0x3bd9b8c0	0.0066443384
101	0xbc28a980	-0.010294318
102	0xbe35323a	-0.17694941
103	0xbe47c48f	-0.19508575
104	0x3e3ea410	0.18617272
105	0xbe345d7f	-0.17613791
106	0xbd3679af	-0.04454964
107	0x3e866f57	0.2625682
108	0xbe980538	-0.29691482
109	0xbda88ba9	-0.08229763
110	0xbd1f6c2c	-0.03892152
111	0xbe834dfe	-0.2564544
112	0xbe621406	-0.22077951
113	0x3e5fd988	0.21860325
114	0xbe02c5c0	-0.12770748
115	0xbdf3b5b5	-0.11899892
116	0x3c8615de	0.016367849
117	0x3e8d29d3	0.27570972
118	0xbe0b97ca	-0.13632122
119	0xbe4841a8	-0.19556296
120	0xbe04db47	-0.12974273
121	0x3de59e44	0.112118274
122	0x3c4c55ca	0.012471626
123	0xbe3414a2	-0.17585996
124	0x3e2f91b8	0.17145431
125	0xbd8870de	-0.06662153
126	0x3e22348c	0.15840358
127	0x3e7ca4a2	0.24672177
128	0x3e2431c6	0.16034612
129	0x3d1061ad	0.0352494
130	0x3d51eefe	0.05125331
131	0x3d85bac0	0.0652976
132	0x3e2d50b4	0.16925317
133	0x3e0ada21	0.13559772
134	0xbe38ca2f	-0.18045877
135	0xbe86c77f	-0.26324078
136	0xbe315917	-0.17319141
137	0xbe10e0e5	-0.1414829
138	0x3e694ebe	0.22783944
139	0x3ddf1c88	0.10894114
140	0xbd90267c	-0.0703859
141	0xbc81fa70	-0.015866488
142	0x3e507f88	0.2036115
143	0x3caa2c51	0.020773085
144	0xbe94343d	-0.28946105
145	0xbe0baaaf	-0.1363933
146	0xbd816a62	-0.06319119
147	0x3e1045a5	0.14089067
148	0x3e31b00a	0.1735231
149	0xbe65e3af	-0.22450136
150	0xbe0d9a7b	-0.13828461
151	0xbe013915	-0.12619431
152	0x3e4ac8fc	0.19803232
153	0x3d999b98	0.0750038
154	0x3e2eb5e3	0.17061572
155	0xbca90b67	-0.02063532
156	0x3ca56510	0.020189792
157	0xbe483fb7	-0.19555555
158	0x3e8ddd0f	0.27707717
159	0x3d8301d7	0.06396835
160	0xbe1b7043	-0.15179543
161	0x3d449995	0.04799803
162	0x3e2f0b38	0.17094123
163	0xbc2ce640	-0.010552943
164	0x3dd08640	0.10181856
165	0x3dab57cc	0.08366355
166	0x3d8cdb14	0.06877723
167	0xbe011fe5	-0.12609823
168	0xba669e6c	-0.00087974104
169	0x3c948d2a	0.018133719
170	0x3c9a1f91	0.01881388
171	0x3dfb1fa5	0.12261895
172	0x3dccae4e	0.099941835
173	0xbe356fc8	-0.17718422
174	0x3e2532f7	0.16132723
175	0xbda1b44b	-0.07895716
176	0xbe72f41b	-0.23725931
177	0xbe89b343	-0.26894578
178	0xbe3d18a4	-0.18466431
179	0xbdeda870	-0.116043925
180	0x3d07657d	0.03305577
181	0xb9820ebe	-0.00024806516
182	0x3dbc05a0	0.091807604
183	0xbd3ea429	-0.046543274
184	0xbe13c194	-0.14429313
185	0x3e4ef425	0.20210321
186	0xbc350202	-0.011047842
187	0x3de0e2ad	0.10980735
188	0xbe8dc279	-0.27687433
189	0x3dda2b98	0.10652846
190	0x3d39a5b0	0.045324028
191	0xbe80ba1a	-0.25141984
192	0x3dc952cc	0.098302454
193	0xbd280b7a	-0.04102657
194	0x3dc353d1	0.09537471
195	0xbbc16c7a	-0.005902824
196	0x3e09a1c1	0.1344061
197	0xbe70188a	-0.23446861
198	0x3d5dc6c7	0.054144647
199	0xbe09648a	-0.13417259
200	0x3d8fa311	0.07013524
201	0xbd832a47	-0.06404548
202	0x3e20c4de	0.15700099
203	0xbe85d56a	-0.26139385
204	0xbe3cff3b	-0.18456738
205	0xbe588a5a	-0.21146527
206	0xbe880ed4	-0.26573813
207	0xbdd74a82	-0.10512258
208	0xbe0fbe93	-0.14037542
209	0xbe6648d9	-0.22488727
210	0xbe91036b	-0.2832292
211	0xbae79a45	-0.0017669877
212	0xbdadd225	-0.084873475
213	0xbe36cb7a	-0.17851058
214	0x3da4cfab	0.08047422
215	0xbc07cb40	-0.008288205
216	0x3e4ea366	0.20179519
217	0x3dfcd244	0.123447925
218	0x3d3422a8	0.043978363
219	0x3e469a15	0.19394715
220	0xbe816903	-0.2527543
221	0xbdc8592c	-0.09782633
222	0x3e25e50f	0.1620066
223	0x3db4147f	0.08792972
224	0xbe77f54d	-0.24214669
225	0xbe6dd0f3	-0.23224239
226	0xbc940860	-0.0180704
227	0x3db26b5e	0.08711885
228	0x3e820141	0.25391582
229	0x3c31d040	0.010852873
230	0x3e57610e	0.21033117
231	0x3e73d87e	0.23813054
232	0xbe3f591a	-0.18686333
233	0xbe63ac3f	-0.22233675
234	0xbe1b0c55	-0.15141423
235	0xbda69640	-0.08134127
236	0xbe377e6a	-0.17919317
237	0xbd01f460	-0.031727195
238	0xbd1c4d3f	-0.038159605
239	0xbca8c19d	-0.020600135
240	0x3dd9e3f1	0.106391795
241	0xbd9bf464	-0.07614973
242	0xbe4a4e58	-0.19756448
243	0xbe297c04	-0.16551214
244	0x3d891050	0.066925645
245	0xbc8c0e93	-0.017096793
246	0xbdcb2c09	-0.099205084
247	0xbd9967f7	-0.07490533
248	0x3e808bf1	0.25106767
249	0xba37d978	-0.00070133014
250	0xbe6005b7	-0.2187718
251	0x3e16ab1b	0.14713709
252	0x3d270f4d	0.040786076
253	0xbe4dd6f7	-0.20101534
254	0x3c092ec0	0.0083729625
255	0xbe762f73	-0.24041538

bias f4 [128]
0	0xbd948511	-0.07251943
1	0x3e8f95d7	0.28044006
2	0xbda08ab3	-0.07838955
3	0xbe0d224e	-0.13782617
4	0x3cdf0211	0.027222665
5	0xbe4da3b5	-0.2008198
6	0xbe6eaa29	-0.23307098
7	0x3e16cbdd	0.14726205
8	0x3e1f85f3	0.15578441
9	0x3df4a134	0.119448096
10	0x3e4b373e	0.19845292
11	0x3e969529	0.29410675
12	0xbe0c6ba6	-0.1371294
13	0x3e0a350e	0.13496801
14	0xbcb11813	-0.021617925
15	0xbe8c92df	-0.27455804
16	0x3d27fee2	0.04101456
17	0x3e8226e4	0.25420296
18	0x3e2f7db8	0.17137802
19	0xbe315943	-0.17319207
20	0x3da074d0	0.0783478
21	0xbdca3820	-0.09873986
22	0x3d19a642	0.03751207
23	0xbe2b7ed8	-0.16747606
24	0xbe8c5c51	-0.27414182
25	0xbcb4feb8	-0.022094116
26	0xbe387ce8	-0.18016398
27	0x3e49c528	0.19704115
28	0xbe75f03c	-0.24017423
29	0x3e5009b8	0.20316207
30	0x3be71fea	0.007053365
31	0xbdd57f68	-0.104246914
32	0x3e518ea3	0.20464568
33	0x3e83cee5	0.25743786
34	0xbe7a08ed	-0.24417467
35	0x3e5bb503	0.21455769
36	0xbe21c397	-0.15797268
37	0x3e01b89f	0.12668084
38	0xbe4c2c72	-0.1993883
39	0x3e5cab7e	0.21549794
40	0xbac790d6	-0.001522566
41	0x3d84b7ff	0.06480407
42	0x3e963c1e	0.2934274
43	0xbe2a631f	-0.16639374
44	0x3d055169	0.032548342
45	0xbd82c7d8	-0.063857734
46	0x3d372aa8	0.044718415
47	0xbe1fc6bc	-0.15603155
48	0xbe746534	-0.23866731
49	0x3df0cb70	0.117575526
50	0xbd9f417a	-0.077761605
51	0xbe57ec64	-0.2108627
52	0xbe89b8ed	-0.268989
53	0x3d6d4472	0.057926603
54	0x3e34685b	0.17617933
55	0x3e526609	0.20546736
56	0xbd9bf24d	-0.076145746
57	0x3d043a71	0.032282297
58	0xbcf6f702	-0.03014708
59	0xbc09a2d5	-0.008400639
60	0xbd6d11c1	-0.05787826
61	0x3ccc885a	0.024967361
62	0x3e4e3041	0.20135595
63	0xbe7e7db4	-0.2485264
64	0xbdfc16e3	-0.12309053
65	0x3e1877ea	0.14889494
66	0x3c9c8663	0.01910705
67	0x3e7c6c73	0.24650745
68	0x3e938037	0.28808758
69	0xbe0e846c	-0.13917702
70	0x3cbbe316	0.022935431
71	0xbe4b4dae	-0.19853851
72	0x3d0d8d17	0.034558382
73	0x3c96807b	0.018371811
74	0xbe86e0eb	-0.26343474
75	0xbe298390	-0.16554093
76	0x3e473499	0.19453658
77	0x3d84cd94	0.064845234
78	0xbdf43f4a	-0.11926134
79	0x3e845481	0.2584572
80	0x3e044bfa	0.12919608
81	0xbe6bbabe	-0.23020455
82	0xbe308051	-0.17236449
83	0x3dc538a3	0.09629943
84	0x3e48d2dc	0.19611686
85	0xbe1b44b3	-0.15162925
86	0xbe87054b	-0.26371226
87	0x3e3f4a8e	0.18680784
88	0x3e8984dd	0.2685918
89	0x3c5fc0ea	0.013656834
90	0xbe35afbf	-0.17742823
91	0x3e01a221	0.12659504
92	0xbe28c1ba	-0.16480151
93	0xbe600059	-0.21875133
94	0xbdbc51a2	-0.09195258
95	0x3d1e7a2a	0.038690723
96	0xbe6472c0	-0.22309399
97	0x3d95c67b	0.07313248
98	0xbdcb2c8e	-0.099206075
99	0xbb57cbac	-0.0032927794
100	0x3e0d47cf	0.13796924
101	0x3e5231b5	0.20526774
102	0x3e62689e	0.22110221
103	0xbe1dc150	-0.15405774
104	0x3e0fae03	0.14031224
105	0x3e3c4a1e	0.18387648
106	0xbd178157	-0.036988582
107	0x3d2721ca	0.040803708
108	0xbe49f721	-0.19723178
109	0xbccfc344	-0.025361665
110	0xbdfca7c2	-0.12336685
111	0x3e37033c	0.17872328
112	0x3e5b8c40	0.2144022
113	0x3db3f1dd	0.08786366
114	0xbe4f2b85	-0.20231445
115	0xbe292682	-0.16518596
116	0x3e26b808	0.1628114
117	0xbe1a03a8	-0.15040457
118	0x3e8c849a	0.27444917
119	0xbe4bad53	-0.19890337
120	0x3e05abf5	0.13053878
121	0x3e7b9b48	0.24570954
122	0x3db035dc	0.08604023
123	0xbe144fb8	-0.14483535
124	0x3d93e238	0.07220882
125	0x3e6bb833	0.23019485
126	0xbe2a3e5d	-0.16625352
127	0x3e53b6c5	0.2067519

weight f4 [128, 128]
0	0x3d1dbde1	0.03851116
1	0x3da97e9e	0.082761034
2	0x3d4a0def	0.049329694
3	0xbdbde2d8	-0.09271783
4	0xbd8fba19	-0.07017917
5	0xbd84a160	-0.06476092
6	0x3cf337b3	0.029689645
7	0x3da2ba47	0.07945686
8	0x3da5d85f	0.0809791
9	0xbd337c20	-0.043819547
10	0xbd54f8c8	-0.05199507
11	0xbd2d0fa4	-0.042251244
12	0x3c88e740	0.016711831
13	0x3daa7c8c	0.08324537
14	0xbb8833bc	-0.004156558
15	0x3cfa31fa	0.030541409
16	0x3ce81fc4	0.02833546
17	0xbc952aea	-0.01820894
18	0x3d622804	0.055213943
19	0xbc93b907	-0.018032564
20	0x3dc439fc	0.09581372
21	0xbd968c60	-0.07350993
22	0x3ce590e6	0.028023195
23	0x3d88ea4f	0.06685316
24	0xbc8bef1f	-0.017081795
25	0xbd2a819e	-0.04162752
26	0x3d0f05bb	0.034917574
27	0xbd477062	-0.04869116
28	0xbbe6aa2b	-0.0070393286
29	0xbda24273	-0.079228304
30	0x3d8208fa	0.063493684
31	0x3daf5bcf	0.08562433
32	0xbd5e05ea	-0.05420486
33	0xbd0e413c	-0.03473018
34	0xbd575c19	-0.052578066
35	0x3dca197a	0.098681405
36	0x3d2072f3	0.039172124
37	0x3db5bc51	0.08873809
38	0x3c20f3c2	0.009823741
39	0x3dbfe3b3	0.09369602
40	0x3d15b76b	0.036551874
41	0x3db39607	0.0876885
42	0xbd72fc4b	-0.059322637
43	0xbd9d5e70	-0.07684028
44	0x3da365f5	0.07978431
45	0x3d8ffe2b	0.070309006
46	0xbd4ce46c	-0.050022528
47	0x3d6ddac8	0.058069974
48	0xbc24ff90	-0.0100706965
49	0xbda594a8	-0.080849946
50	0x3d963319	0.07333965
51	0x3d6f63cf	0.058444794
52	0xbd957f9c	-0.0729973
53	0xbd0aca74	-0.03388448
54	0x3dc65f83	0.09686186
55	0x394e171e	0.00019654303
56	0xbd2e7788	-0.042594463
57	0x3d05d379	0.03267238
58	0xbc4435dc	-0.011975732
59	0xbd3646b0	-0.044501007
60	0x3d79d1af	0.060990985
61	0x3c43d90f	0.011953606
62	0x3d5bdb98	0.053676218
63	0x3c8e4bd2	0.017370138
64	0xbd6fe54a	-0.058568276
65	0xbd3f0a7a	-0.04664085
66	0xbbce4653	-0.0062950044
67	0x3db63282	0.08896352
68	0xbbe0cb5c	-0.00686018
69	0xbc9c6e1a	-0.01909547
70	0x3dae71ec	0.085178226
71	0x3d25050a	0.04028801
72	0xbd8ea0ba	-0.0696425
73	0x3d2ba126	0.04190173
74	0x3d17767b	0.036978226
75	0xbd29d3dc	-0.04146181
76	0x3c556ee6	0.0130269285
77	0xbcfd1e19	-0.03089814
78	0xbd7908d8	-0.06079945
79	0x3ba4505f	0.005014464
80	0x3d7f2efc	0.062300667
81	0xbd04ac75	-0.03239103
82	0x3d77aa0d	0.060464907
83	0x3d8c83d5	0.068610825
84	0xbd1aa8ca	-0.037758626
85	0x3dcf9b83	0.101370834
86	0xbcceeeea	-0.025260407
87	0x3d33dbe0	0.04391086
88	0xbd4e43cb	-0.05035762
89	0xbd236a7a	-0.039896466
90	0xbd7a6ccd	-0.061138917
91	0xbc8741e0	-0.016510904
92	0x3da93786	0.082625434
93	0xbb8c640e	-0.0042843884
94	0xbcd7b443	-0.026331073
95	0xbd3dfe74	-0.046385244
96	0xbc5d8e39	-0.013522678
97	0xbcb5f23f	-0.022210239
98	0x3d4cc553	0.04999287
99	0x3d4caa18	0.0499669
100	0xbd94a240	-0.07257509
101	0xbc783325	-0.015148913
102	0x3b0f6204	0.002187849
103	0x3da83098	0.082123935
104	0x3ba9e074	0.0051842276
105	0x3cd55d0e	0.026045348
106	0x3d95c12d	0.07312236
107	0xbd55646a	-0.052097715
108	0xbd28974a	-0.041159905
109	0x3cf11c5b	0.029432466
110	0x3db6d693	0.089276455
111	0x3dab2406	0.0835648
112	0x3d9903c4	0.07471421
113	0xbd892ab3	-0.06697597
114	0xbd2f2de6	-0.04276838
115	0xbd3cc367	-0.046084788
116	0xbc61f2dc	-0.013790812
117	0x3a9db948	0.0012033368
118	0x3db5dd8a	0.08880146
119	0x3d44310f	0.04789835
120	0xbdbe91ef	-0.093051784
121	0x3db3e2b7	0.08783477
122	0xbd96f39d	-0.07370684
123	0xbd9b32a8	-0.07578021
124	0x3da1fe04	0.07909778
125	0x3c36348b	0.011120926
126	0xbc867d31	-0.016417118
127	0xbcb5b3cb	-0.022180459
128	0x3d073d91	0.0330177
129	0x3d3b335e	0.045703284
130	0xbda9153f	-0.082560055
131	0x3d15ecd5	0.036602814
132	0xbd4af008	-0.049545318
133	0x3c7f4b2b	0.015581886
134	0xbdb2c1d1	-0.08728374
135	0x3d95a64d	0.0730711
136	0x3c1d5931	0.009603784
137	0x3cff4645	0.031161437
138	0x3c1b0430	0.009461448
139	0xbdcc126a	-0.0996445
140	0xbd49222d	-0.04910486
141	0xbba00935	-0.00488391
142	0xbc9aa652	-0.018878136
143	0x3c6126eb	0.013742189
144	0xbd272cb3	-0.040814113
145	0xbc66ba51	-0.014082507
146	0xbc7a9606	-0.015294557
147	0x3d1fda8f	0.039026793
148	0xbdc57f3b	-0.09643408
149	0xbd42780d	-0.04747777
150	0x3d88e64f	0.06684553
151	0xbc4d42ce	-0.0125281345
152	0xbbeb9b65	-0.0071901553
153	0xbd32757e	-0.04356908
154	0xbb60a18a	-0.0034275972
155	0xbd903bda	-0.07042666
156	0x3d6629a2	0.056192048
157	0xbb872e3b	-0.004125384
158	0x3db0eb93	0.08638682
159	0xba984995	-0.0011618609
160	0x3d8ad690	0.06779206
161	0xbcfd4bd7	-0.030919952
162	0x3d3a6cf4	0.045514062
163	0x3d89a58f	0.06721031
164	0xbd13e9d1	-0.036111657
165	0xbd9107d7	-0.070815735
166	0xbd187ea7	-0.03723016
167	0xbd3b7b00	-0.0457716
168	0x3da2fafa	0.07958026
169	0x3ca97170	0.020683974
170	0x3d62f716	0.05541142
171	0xbd75cc8c	-0.060009524
172	0xbd022afc	-0.031779274
173	0xbdace7c4	-0.08442643
174	0xbd3a39b4	-0.045465186
175	0xbaca769e	-0.0015446728
176	0xbcfbfb3b	-0.030759444
177	0x3d5e37b5	0.054252345
178	0xbc57a8fe	-0.0131628495
179	0x3c339d31	0.01096277
180	0x3c218f65	0.009860848
181	0x3dc66cda	0.096887305
182	0xbca1c07c	-0.019745104
183	0xbd392f1f	-0.045210954
184	0x3d73c0a9	0.059509907
185	0xbdb11201	-0.08646012
186	0x3d461789	0.04836229
187	0xbc64866f	-0.013948067
188	0xbca8f2af	-0.020623533
189	0xbdccfe8c	-0.100094885
190	0x3cfb1073	0.030647492
191	0x3d6476e7	0.055777457
192	0x3d0f111e	0.034928434
193	0x3d275ec0	0.040861845
194	0xbc062a84	-0.008188847
195	0xbcceee92	-0.025260244
196	0xbceb01b8	-0.028687343
197	0xbd14a134	-0.036286548
198	0xbc4c7173	-0.01247822
199	0xbd4b1f7e	-0.04959058
200	0x3d83f260	0.06442714
201	0x3d890165	0.06689719
202	0xbd94483b	-0.07240339
203	0xbd0cc706	-0.03436949
204	0x3d86c17e	0.065798745
205	0x3db5b9ca	0.08873327
206	0xbc9a3daf	-0.018828241
207	0x3d2959dc	0.041345462
208	0xbc815b7e	-0.015790697
209	0xbc41e02c	-0.011833232
210	0x3c4ab072	0.012371169
211	0x3b5938f4	0.003314552
212	0xbce32517	-0.027727647
213	0x3d8d2e89	0.068936415
214	0x3d69694f	0.056985196
215	0xbd040ec0	-0.03224063
216	0x3d8796f1	0.06620587
217	0xbbbe5899	-0.0058089015
218	0x3d438eb7	0.047743525
219	0x3d5788f3	0.05262084
220	0xbd0311c4	-0.031999364
221	0x3ce26e51	0.027640494
222	0x3cb87aed	0.022519553
223	0xbbaa4dbf	-0.0051972563
224	0x3d1f65bb	0.038915377
225	0x3d00824d	0.031374265
226	0x3c8b9c25	0.017042229
227	0x3ce2d6ed	0.027690375
228	0xbd1bc6e7	-0.038031485
229	0xbc01df33	-0.00792675
230	0x3d318a68	0.043344885
231	0x3da9bac4	0.08287576
232	0x3d6ece3a	0.05830214
233	0x3d864918	0.0655691
234	0x3d97ecbe	0.07418202
235	0xbdadd7a2	-0.08488394
236	0x3c15c3e4	0.009140942
237	0x3d705c5f	0.058681842
238	0x384f5c30	4.9438502e-05
239	0x3dd872e4	0.10568789
240	0xbdb7f46b	-0.08982166
241	0xbd6ddff9	-0.058074925
242	0x3d6ce669	0.057836924
243	0xbd20a0d6	-0.039215885
244	0xbd457a78	-0.0482125
245	0xbb5a765b	-0.0033334706
246	0x3d17c42b	0.037052315
247	0xbd822112	-0.06353964
248	0x3d30c228	0.04315391
249	0xbcfe6757	-0.031055136
250	0x3de51c59	0.111870475
251	0x3d691027	0.05690017
252	0xbceb5355	-0.02872626
253	0x3d834215	0.064090885
254	0xbbd1d962	-0.006404088
255	0xbc885181	-0.016640427

bias f4 [128]
0	0xbc94bb95	-0.018155852
1	0x3db30590	0.08741295
2	0x3dcf2220	0.10113931
3	0x3db1df35	0.086851515
4	0xbd3580a1	-0.044312123
5	0xbc2028df	-0.009775369
6	0xbdb1e905	-0.08687023
7	0xbc74f12f	-0.014950081
8	0x3db08e3d	0.0862088
9	0x3d4b8b44	0.04969336
10	0xbd8c0a61	-0.06837917
11	0xbd4d7ddd	-0.05016886
12	0x3dd67f0f	0.10473453
13	0x3d82ecc6	0.06392817
14	0xbd4a5cce	-0.04940491
15	0x3cc74426	0.024324488
16	0x3d8cdc49	0.068779536
17	0xbd3a8b42	-0.045542963
18	0x3c133717	0.008985302
19	0xbd37da06	-0.044885658
20	0x3bb48285	0.005508723
21	0x3b75d0a9	0.0037508404
22	0xbdae2a82	-0.085042015
23	0x3d4dd7ca	0.05025462
24	0xbc33584a	-0.010946343
25	0x3a7a6bd7	0.00095528126
26	0xbd705865	-0.05867805
27	0x3bb71f3c	0.00558844
28	0xbd6f8a59	-0.058481548
29	0x3d923e4f	0.07140791
30	0x3d8e2aa2	0.06941725
31	0x3d66d017	0.056350794
32	0x3d72e514	0.059300497
33	0x3db75137	0.089510374
34	0xbd50a1a4	-0.050935403
35	0xbaeeaed5	-0.0018210063
36	0xbce6f865	-0.028194616
37	0xbd65c16d	-0.05609267
38	0xbdb42797	-0.08796614
39	0x3d5a8136	0.05334588
40	0xbd1d706b	-0.03843729
41	0xbd69c2c7	-0.05707052
42	0xbd0d83af	-0.03454941
43	0x3d141f28	0.036162525
44	0xbd90401f	-0.0704348
45	0x3d6997e1	0.05702961
46	0xbd37816b	-0.044801157
47	0xbd8dd35e	-0.06925081
48	0xbc37be6c	-0.011214834
49	0x3c1f8eeb	0.009738664
50	0xbd1c9220	-0.038225293
51	0xbd4cd398	-0.05000648
52	0xbd3d2930	-0.046181858
53	0x3d0af497	0.033924665
54	0xbd590f3f	-0.052993055
55	0x3d2c012f	0.041993316
56	0x3d064158	0.03277716
57	0x3d684a71	0.056711618
58	0xbd71c6ce	-0.059027486
59	0xbcf175f0	-0.029475182
60	0x3dc4cd56	0.09609477
61	0x3d805241	0.06265689
62	0x3ae6eac3	0.0017617572
63	0xbd03721d	-0.03209125
64	0x3d389ee8	0.04507342
65	0xbdac25e0	-0.084056616
66	0x3d11584b	0.035484593
67	0x3ca01e27	0.019545628
68	0x3d1786a4	0.036993638
69	0x3d7b2aeb	0.061320227
70	0xbc642af0	-0.013926253
71	0x3d7bba02	0.061456688
72	0x3bfca998	0.007710647
73	0xbd6c78db	-0.057732444
74	0x3d49753d	0.049184073
75	0xbd673791	-0.056449477
76	0xbb003fd3	-0.0019569292
77	0x3bba385d	0.0056829886
78	0x3a1ab89e	0.0005902144
79	0x3d47e906	0.048806213
80	0xbcc56ba9	-0.024099188
81	0xbd412c12	-0.04716117
82	0xbd87e274	-0.066349894
83	0x3ca02070	0.019546717
84	0x3b209b98	0.0024506804
85	0x3d8ca423	0.06867244
86	0x3da44bdf	0.08022284
87	0xbd66276e	-0.056189947
88	0x3d81f7b4	0.06346074
89	0x3d4e1890	0.050316393
90	0x3d4e48e4	0.050362483
91	0xbcdd1a4c	-0.026990078
92	0x3c92256b	0.017840108
93	0x3db2ee8b	0.08736905
94	0xbd3b6495	-0.04575022
95	0x3cbebfb1	0.023284765
96	0x3d990a2b	0.074726425
97	0xbd14951d	-0.036275018
98	0xbd26c4c8	-0.04071501
99	0x3d3ba5c1	0.045812372
100	0xbd96e214	-0.0736734
101	0x3d01d74e	0.03169947
102	0x3db49bad	0.08818755
103	0x3c890aa7	0.016728712
104	0xbda90ae6	-0.08254032
105	0x3d479cde	0.048733585
106	0x3b8019a2	0.0039093057
107	0x3db2e50e	0.08735095
108	0x3d33b0df	0.04386985
109	0x3d0a2ea3	0.033735882
110	0xbd4a91a5	-0.049455304
111	0x3da71e6d	0.081601
112	0xbcce5bef	-0.025190322
113	0x3daa9285	0.08328728
114	0xbc1f6190	-0.009727851
115	0xbcfb16ce	-0.030650523
116	0xbd9181db	-0.07104846
117	0x3d0b5082	0.034012325
118	0x3dbdc906	0.09266858
119	0xbd147c87	-0.03625157
120	0xbc82ca75	-0.01596568
121	0x3d6edccd	0.05831604
122	0xbc4b7447	-0.012417859
123	0xbcdafbd4	-0.02673141
124	0x3dc2bb79	0.09508414
125	0xbd874755	-0.066054024
126	0x3d531dc6	0.051542066
127	0xbd2fcc26	-0.0429193
