runs/cycle0/policy.pt (torch, 75518 bytes, 5 tensors)

net.0.weight f4 [128, 12]
0	0x3ca52be0	0.020162523
1	0xbe3211cf	-0.17389606
2	0x3dbc4108	0.09192091
3	0x3db98258	0.09058064
4	0xbe1dfe3f	-0.15429018
5	0xbd313780	-0.04326582
6	0xbe2d2c36	-0.16911396
7	0x3d9966e8	0.07490331
8	0xbd9f4082	-0.07775976
9	0x3e4fac14	0.20280486
10	0x3e51d842	0.20492652
11	0x3cf0e7e0	0.029407442
12	0xbe03d0cd	-0.1287262
13	0xbe33ba58	-0.17551553
14	0xbcd2c36f	-0.025727956
15	0xbda0c554	-0.07850137
16	0x3df87f68	0.12133676
17	0xbe811540	-0.25211525
18	0x3e87e395	0.2654082
19	0xbe67e114	-0.22644454
20	0x3e625c1c	0.2210545
21	0xbd4d54dc	-0.050129756
22	0x3e17ead9	0.14835681
23	0x3de663ec	0.11249527
24	0x3c7d53e5	0.015461897
25	0x3d6c26f2	0.05765433
26	0x3e646aee	0.22306415
27	0x3d9a617a	0.075381234
28	0x3e20af3e	0.1569185
29	0xbe60d050	-0.21954465
30	0x3e563cec	0.20921677
31	0x3dcb79a0	0.099353075
32	0x3d95c0d8	0.07312173
33	0x3d235848	0.039879113
34	0x3e13c981	0.14432336
35	0x3e89a9af	0.2688727
36	0xbd6e81ed	-0.058229376
37	0xbe2ad511	-0.16682841
38	0xbda10b5d	-0.078634955
39	0xbe2e0410	-0.16993737
40	0x3e145957	0.14487205
41	0xbe0bf310	-0.1366694
42	0xbe23e9ac	-0.16007107
43	0x3e7f0e00	0.24907684
44	0x3e873ff2	0.26415974
45	0x3d07fe88	0.033201724
46	0xbd342722	-0.043982632
47	0xbd18a1b0	-0.037263572
48	0x3e122eaf	0.14275621
49	0xbe8d1769	-0.27556923
50	0xbe77badb	-0.24192373
51	0x3e72478f	0.2366011
52	0x3e94f994	0.29096663
53	0xbc3724db	-0.011178221
54	0xbe6fb8ed	-0.23410387
55	0x3c013aa0	0.007887512
56	0xbe09853b	-0.1342973
57	0xba117c00	-0.00055497885
58	0x3e16c499	0.14723434
59	0x3dfe4cba	0.12416978
60	0xbd0aa7d8	-0.033851475
61	0x3d022dc8	0.03178194
62	0x3da0e388	0.07855898
63	0xbe67b36a	-0.22627035
64	0xbdc8713c	-0.09787223
65	0x3c392ec0	0.01130265
66	0xbe28ac8a	-0.16472068
67	0xbe0119a1	-0.12607433
68	0x3dc692b8	0.09695953
69	0x3e2a20ca	0.1661407
70	0x3b848a80	0.004044831
71	0xbde5f868	-0.1122902
72	0x3e280009	0.16406263
73	0xbe283085	-0.16424759
74	0xbd9711a1	-0.07376409
75	0x3e8e81a5	0.27833286
76	0x3d726f2a	0.059188046
77	0x3cd7f4a7	0.026361777
78	0x3dbb01af	0.091311805
79	0xbd902b0c	-0.070394605
80	0x3e7ce988	0.2469846
81	0xbe711955	-0.2354482
82	0xbd9642a4	-0.073369294
83	0xbd3d443b	-0.046207648
84	0xbde6f714	-0.11277595
85	0xbd9e9f3b	-0.077452146
86	0x3e310d37	0.17290197
87	0x3e285868	0.16439974
88	0x3cb4c4e4	0.022066541
89	0x3e83d7ae	0.25750488
90	0xbe56dc33	-0.20982437
91	0xbe304496	-0.17213663
92	0x3e058ef4	0.13042814
93	0xbc7e37e0	-0.015516251
94	0xbe839af5	-0.2570416
95	0xbe48d620	-0.19612932
96	0xbe33f440	-0.17573643
97	0x3e6444a8	0.22291815
98	0x3e05de58	0.13073099
99	0x3e64ae70	0.22332168
100	0xbe5c12fa	-0.21491614
101	0xbe9019ff	-0.28144833
102	0xbe41d91d	-0.18930478
103	0x3cfcfe20	0.030882895
104	0xbd698904	-0.057015434
105	0xbe3a480f	-0.1819155
106	0x3e57310e	0.21014807
107	0xbdbea7d6	-0.09309356
108	0xbe24d22e	-0.16095802
109	0x3e026536	0.12733921
110	0xbdab97b9	-0.08378548
111	0x3e4299b2	0.19003943
112	0x3d9931af	0.074801795
113	0x3c570e12	0.013125913
114	0x3d5f9f6b	0.054595392
115	0xbe5e1f26	-0.2169157
116	0xbe1e2a0b	-0.15445726
117	0xbe0aee7b	-0.13567536
118	0xbe211f8c	-0.1573469
119	0x3d4bfa30	0.049799144
120	0x3d53a568	0.051671416
121	0xbe00f893	-0.12594824
122	0x3e3a8d5b	0.18217985
123	0xbe2a9cc7	-0.16661368
124	0x3d83a880	0.06428623
125	0xbd9c8486	-0.07642464
126	0xbe834821	-0.25640967
127	0xbe407b42	-0.18797019
128	0x3df17ebc	0.11791751
129	0x3de9f4c8	0.114236414
130	0xbe30ae95	-0.17254098
131	0xbdb85b9a	-0.090018466
132	0xbe8a2bf8	-0.2698667
133	0x3e1ee646	0.1551753
134	0x3e7f9af4	0.24961454
135	0x3dc156c8	0.0944038
136	0xbe36e77a	-0.17861739
137	0x3e1beb3a	0.1522645
138	0x3e755124	0.23956734
139	0xbd71e77c	-0.05905865
140	0xbd41d3b0	-0.04732102
141	0x3dcca0ac	0.09991583
142	0x3d181d90	0.037137568
143	0xbdc36690	-0.095410466
144	0xbe8c4a05	-0.27400222
145	0xbe4920ca	-0.19641414
146	0x3cb14319	0.02163844
147	0xbcb00dd0	-0.021490961
148	0x3e6df00d	0.23236103
149	0x3b7d3266	0.0038634776
150	0xbd8bed85	-0.06832413
151	0xbe906a87	-0.28206274
152	0xbe87e49e	-0.2654161
153	0x3df59678	0.1199159
154	0x3e808fb7	0.25109646
155	0xbbfca1e3	-0.007709728
156	0xbe841af8	-0.25801826
157	0x3dd1e6d8	0.10249108
158	0x3e70c314	0.23511916
159	0xbe43a563	-0.19106059
160	0xbd9ba7c6	-0.076003596
161	0x3cc6e400	0.02427864
162	0xbe289490	-0.16462922
163	0xbe890c4a	-0.26767188
164	0x3e016898	0.12637556
165	0xbe7290e8	-0.2368809
166	0xbd9465b8	-0.07245964
167	0xbe1cf5dd	-0.15328164
168	0x3e5827f5	0.21108992
169	0x3d7ce6a9	0.061743412
170	0x3e0f3c0f	0.13987754
171	0xbe4e52aa	-0.20148721
172	0x3e72f5fd	0.2372665
173	0x3ca187c8	0.019718066
174	0xbe1dcd5e	-0.15410373
175	0xbc9ab330	-0.018884271
176	0xbe514dbb	-0.20439808
177	0xbc5a5140	-0.013325036
178	0x3e1eecbe	0.15519997
179	0xbdfb6de7	-0.122768216
180	0x3e7545a4	0.23952347
181	0x3dbf36ef	0.093366496
182	0xbd676fe8	-0.056503206
183	0x3dc44492	0.09583391
184	0xbd414caa	-0.047192253
185	0xbd7a4567	-0.061101343
186	0xbe480c12	-0.19535854
187	0x3e2c3e14	0.16820556
188	0x3e3172de	0.17328975
189	0x3dca6e88	0.098843634
190	0x3e31581b	0.17318766
191	0x3e93a918	0.28839946
192	0x3e8e3ef9	0.2778242
193	0xbe91b57a	-0.28458768
194	0x3d750433	0.059818458
195	0xbc994bd4	-0.018712915
196	0x3dd50c17	0.104026966
197	0xbd4cb79b	-0.049979787
198	0x3d98b656	0.07456653
199	0xbe87fde1	-0.26560882
200	0x3e071bb2	0.13194159
201	0x3e8dff78	0.2773397
202	0xbd3c14e8	-0.045918375
203	0xbe6b2174	-0.2296198
204	0xbe7be070	-0.24597335
205	0xbd4a3c94	-0.049374178
206	0x3ad6ccba	0.0016387918
207	0x3cd68d83	0.026190525
208	0x3cf77599	0.030207442
209	0x3e58802e	0.21142647
210	0xbd3dea9e	-0.046366327
211	0x3da8b758	0.08238095
212	0xbe1d1a4d	-0.15342064
213	0x3e915e84	0.28392422
214	0x3dd68b2e	0.10475765
215	0xbd31441f	-0.043277856
216	0x3e3c2b13	0.18375807
217	0x3ddd947a	0.10819335
218	0x3d636143	0.055512678
219	0xbdbad330	-0.09122312
220	0x3cf83e31	0.030303093
221	0x3c6fe77e	0.014642594
222	0xbe268ebd	-0.16265388
223	0x3b875c00	0.0041308403
224	0x3d811a1c	0.06303808
225	0xbe2f16c7	-0.17098533
226	0x3d3ab447	0.045582082
227	0xbdbb6858	-0.09150761
228	0xbe7c14ac	-0.2461726
229	0xbe2ae264	-0.16687924
230	0xbe647502	-0.2231026
231	0x3d790c5d	0.060802806
232	0x3e2eaa7b	0.1705722
233	0x3e834b2a	0.25643283
234	0x3e93fea3	0.2890521
235	0x3de8dc60	0.11370158
236	0x3e109466	0.1411911
237	0xbd49a4ec	-0.049229547
238	0x3e6e35f0	0.23262763
239	0xbde8d732	-0.1136917
240	0xbd945abc	-0.07243869
241	0xbdd10f07	-0.10207944
242	0xbe4c4eec	-0.19951981
243	0xbe5dac61	-0.21647789
244	0xbd586d5f	-0.05283868
245	0x3e750fd1	0.23931815
246	0xbe19688c	-0.14981288
247	0xbe862ec1	-0.26207545
248	0xbd87145c	-0.0659568
249	0x3e85edcc	0.26157987
250	0x3d9ae750	0.075636506
251	0xbc6a835e	-0.014313547
252	0xbdb54dcd	-0.0885273
253	0x3e84d98a	0.2594722
254	0xbe8af2e5	-0.2713844
255	0x3e215a3d	0.1575708

net.0.bias f4 [128]
0	0xbe5b9aa4	-0.2144571
1	0x3e3d5441	0.18489172
2	0xbdea59e8	-0.114429295
3	0xbe1d876f	-0.15383695
4	0x3e4389fb	0.19095604
5	0x3cd437e0	0.02590555
6	0x3d7ba1db	0.061433654
7	0xbdac4763	-0.084120534
8	0x3d9102ec	0.070806354
9	0x3e42666a	0.1898438
10	0xbe45e552	-0.1932576
11	0xbd5f3088	-0.054489642
12	0x3c74d39a	0.014943028
13	0x3e705cc4	0.23472887
14	0x3e67761a	0.22603646
15	0x3e4d0385	0.20020874
16	0xbdc957a1	-0.09831167
17	0xbbb63451	-0.005560436
18	0xbc3a15a7	-0.011357701
19	0xbe59c860	-0.21267843
20	0xbe4f03bd	-0.2021627
21	0xbd7f0efd	-0.062270153
22	0xbd0856e3	-0.033285987
23	0x3dbe9b02	0.09306909
24	0xbe84ded7	-0.25951263
25	0xbe0d9251	-0.13825347
26	0x3e6bd47c	0.23030275
27	0x3d496f18	0.049178213
28	0xbe4b5b11	-0.19858958
29	0x3e13163f	0.14363955
30	0xbdf2a11b	-0.11847135
31	0xbe1e60e5	-0.1546665
32	0xbe04779a	-0.1293625
33	0xbe290e3b	-0.16509335
34	0xbe17bd09	-0.14818205
35	0x3d4b88eb	0.049691122
36	0x3e133887	0.14377032
37	0x3e20f3fd	0.15718074
38	0x3e909b3b	0.2824343
39	0x3e708cfc	0.23491281
40	0xbe1c6204	-0.15271765
41	0x3e7314fe	0.23738477
42	0xbd8b6bb4	-0.06807652
43	0x3e22e610	0.15908074
44	0xbe0acce7	-0.13554727
45	0x3e741c5f	0.23838948
46	0xbc6c5b4e	-0.014426066
47	0x3dd79fbd	0.105285145
48	0x3e8380b6	0.25684136
49	0xbd7bdec4	-0.061491743
50	0x3df762b8	0.12079376
51	0x3db1dfa3	0.086852334
52	0xbddc5021	-0.10757471
53	0x3c43cf6a	0.011951307
54	0x3e6f21c8	0.2335273
55	0x3d92b55f	0.071635
56	0x3e588fc0	0.21148586
57	0x3e130d44	0.14360529
58	0x3e113e5a	0.14183941
59	0xbdfcb1ea	-0.12338622
60	0xbd762c18	-0.060100645
61	0x3e33e5b3	0.17568092
62	0x3d960d76	0.07326786
63	0x3e1e1a39	0.1543969
64	0x3e6757c4	0.22592074
65	0x3e048f2b	0.12945239
66	0x3dfa0b84	0.12209228
67	0xbe01dff3	-0.12683086
68	0x3dcde2d8	0.10053033
69	0xbc05f5e5	-0.008176302
70	0x3e43a8b6	0.19107327
71	0x3de4543a	0.111488774
72	0xbe323570	-0.17403197
73	0x3e3dd5a9	0.18538536
74	0xbd148ddf	-0.03626811
75	0x3ddbda83	0.10735037
76	0xbdfcc94e	-0.12343083
77	0xbe84cfe5	-0.2593986
78	0x3dfc8b8b	0.12331303
79	0x3e0e38a0	0.13888788
80	0x3e68fd48	0.22752869
81	0x3e2d8476	0.16945061
82	0x3e127415	0.14302094
83	0x3e15c48a	0.14625755
84	0x3d9dc3ac	0.07703337
85	0xbe05a318	-0.13050497
86	0x3d6bf78e	0.057609133
87	0xbe69c7f9	-0.2283019
88	0xbe30e88e	-0.17276213
89	0x3e874148	0.26416993
90	0x3de5b452	0.11216034
91	0x3de933a0	0.113868
92	0xbcbbb806	-0.022914898
93	0xbe8c49ec	-0.27400148
94	0xbda9700a	-0.08273323
95	0xbde2f3c5	-0.110816516
96	0xbde221d2	-0.11041607
97	0x3d66c2f8	0.05633828
98	0xbe3cf4b4	-0.18452722
99	0xbe280820	-0.1640935
100	0xbd7d6d64	-0.0618719
101	0xbe79453d	-0.24342819
102	0xbd2a373f	-0.041556593
103	0xbbb09a40	-0.005389482
104	0xbcd089d1	-0.025456341
105	0xbde423b4	-0.11139622
106	0xbdb04ab1	-0.08607996
107	0x3e682208	0.22669232
108	0x3e1f17ad	0.15536375
109	0x3d95bfde	0.073119864
110	0xbe46aeca	-0.19402614
111	0xbe3af596	-0.18257746
112	0x3e06e286	0.1317235
113	0xbbc27a90	-0.0059350207
114	0xbc111fa8	-0.008857645
115	0xbdbc2d4c	-0.09188327
116	0xbe5481b4	-0.20752603
117	0xbe296a04	-0.16544348
118	0x3e23d6a2	0.15999845
119	0x3e62c8ef	0.22146963
120	0x3e3263b2	0.17420843
121	0xbe39e0fc	-0.18152231
122	0xbab59a84	-0.0013855253
123	0xbe7a9c4c	-0.24473685
124	0xbe2bc903	-0.16775899
125	0xbe52ee12	-0.20598629
126	0x3da76de5	0.081752576
127	0xbe87fa16	-0.26557988

net.2.weight f4 [128, 128]
0	0x3d83b1cb	0.06430396
1	0x3d91b065	0.07113723
2	0xbb86cd90	-0.0041138604
3	0x3ce88c55	0.028387228
4	0x3d1677ae	0.03673523
5	0x3da3d04b	0.07998713
6	0x3c33554d	0.01094563
7	0x3db1ffe2	0.08691384
8	0x3d06d86e	0.032921247
9	0xbca68434	-0.020326711
10	0x3d94ed65	0.07271842
11	0x3ccee274	0.025254466
12	0x3d2ea12a	0.042634167
13	0x3c376af0	0.0111949295
14	0xbd21e394	-0.039523676
15	0x3da3e251	0.08002151
16	0x3ccc787e	0.024959799
17	0xbbd33d1c	-0.006446494
18	0x3ce0321f	0.02736765
19	0xbd2068ed	-0.039162565
20	0x3d078f11	0.033095423
21	0xbda3b3f3	-0.07993307
22	0x3d6a0e4d	0.057142545
23	0x3d84034e	0.06445943
24	0xbd545626	-0.05183997
25	0x3d156a4a	0.03647832
26	0x3bf91080	0.007600844
27	0xbceb7618	-0.028742835
28	0x3db7dec6	0.089780375
29	0x3bb47db6	0.00550815
30	0xbd4eaadd	-0.050455917
31	0xbda0287d	-0.078202225
32	0x3c2fdc22	0.010733636
33	0xbd1f0590	-0.038823664
34	0xbd9ec4b7	-0.07752364
35	0xbd855516	-0.065103695
36	0x3d8c8d94	0.068629414
37	0xbd2a89ae	-0.041635208
38	0xbd4d0b02	-0.050059326
39	0xbd449735	-0.047995765
40	0x3bc105e0	0.005890593
41	0xbc7ce842	-0.015436234
42	0xbd8fbfed	-0.07019029
43	0xbd44ed18	-0.048077673
44	0xbd7a9ff9	-0.061187718
45	0x3ccc3659	0.024928259
46	0x3bc516a6	0.006014663
47	0x3da733c5	0.08164171
48	0x3d23d3fc	0.039997086
49	0x3c911ac0	0.01771295
50	0x3da51318	0.080602825
51	0x3cbe8de1	0.023261013
52	0xbd1793c5	-0.03700616
53	0x3da2ba1d	0.079456545
54	0xbd0dc060	-0.03460729
55	0xbd5b54ad	-0.05354755
56	0x3d8bd763	0.06828191
57	0x3da12b0f	0.07869541
58	0x3d6642e6	0.056216143
59	0xbcabb7e0	-0.020961702
60	0x3db08825	0.086197175
61	0x3d4b8a36	0.049692355
62	0x3c9b3eaa	0.018950779
63	0x3c580190	0.013183966
64	0x3d4762af	0.048678096
65	0xbd13b1a4	-0.036058083
66	0xbccafb78	-0.024778113
67	0x3d6566a8	0.056006104
68	0x3c8fb8e4	0.017544217
69	0x3a972611	0.001153173
70	0xbbe19850	-0.006884612
71	0x3b7b3b40	0.0038334876
72	0x3dbfb86e	0.09361349
73	0x3da86da7	0.082240395
74	0xbdaa9089	-0.08328349
75	0xbd809eca	-0.062802866
76	0xbd7ded48	-0.061993867
77	0x3b315e79	0.0027064367
78	0x3ce3fa91	0.02782944
79	0xbd3077e7	-0.043083098
80	0x3d3062bd	0.043062914
81	0xbda4603a	-0.08026166
82	0x3d8aec0d	0.06783304
83	0x3b816ce8	0.00394975
84	0x3ce27318	0.027642772
85	0x3d7d51e2	0.061845668
86	0x3c1bf938	0.009519868
87	0xbd18bee8	-0.037291437
88	0xbcca4cdc	-0.024694853
89	0x3da20fcb	0.079131685
90	0xbc93b668	-0.018031314
91	0xbb864390	-0.0040974095
92	0xbd8bbf68	-0.06823617
93	0xbd4a0c7e	-0.04932832
94	0xbba96ce0	-0.0051704496
95	0x3d003079	0.031296227
96	0xbd443d8e	-0.047910266
97	0x3b951150	0.004549183
98	0x3da4cbf1	0.08046711
99	0x3db624ce	0.08893739
100	0x3b5aaca0	0.0033367053
101	0x3dbff054	0.09372011
102	0x3dba0acf	0.09084093
103	0x3d308d9e	0.043103807
104	0x3d9dfaaf	0.0771383
105	0x3c810774	0.015750624
106	0xbce16da1	-0.027518095
107	0x3d91f1c3	0.071261905
108	0x3d0a523e	0.03376984
109	0x3cc553d5	0.024087826
110	0x3b7eacf4	0.0038860412
111	0xbc212ee0	-0.009837836
112	0xbd985d27	-0.074396424
113	0xbd2084c6	-0.039189123
114	0xbd57d8e8	-0.052697092
115	0xbc704c00	-0.014666557
116	0x3d5e4d33	0.05427284
117	0xbd200c8e	-0.039074473
118	0x3c482d8f	0.012217893
119	0xbd0a0269	-0.033693705
120	0xbcebc3c4	-0.028779872
121	0x3cdb6cfc	0.026785366
122	0x3d24c9ac	0.04023139
123	0x3da0bf81	0.078490265
124	0xbc3fcf77	-0.011707178
125	0x3d887a59	0.06663961
126	0xbd6f797e	-0.058465473
127	0x3ca4d7f2	0.020122502
128	0x3b7a70e0	0.0038214251
129	0x3da3fb93	0.08006968
130	0x3d2b43d4	0.041812733
131	0xbd55e5b5	-0.05222102
132	0x3d19e147	0.037568357
133	0x3a38a100	0.0007043034
134	0xbd999090	-0.07498276
135	0xbd699c68	-0.057033926
136	0xbd833db1	-0.06408251
137	0x3d88678b	0.06660374
138	0x3d8b0f76	0.06790058
139	0xbd88e9bf	-0.066852085
140	0x3d177b44	0.03698279
141	0x3dabd557	0.08390301
142	0xbc7a7885	-0.015287523
143	0x3d6147a0	0.054999948
144	0x3d7e7bde	0.062129848
145	0x3d250067	0.040283587
146	0xbd367f1a	-0.044554807
147	0x3d8c266a	0.068432644
148	0x3c89eccc	0.016836546
149	0x3d156c04	0.036479965
150	0xbdaea010	-0.08526623
151	0x3cd4e193	0.025986468
152	0x3d5a65de	0.053319804
153	0xbd89533a	-0.06705327
154	0xbd7e6b1c	-0.062113866
155	0xbd0bb2ff	-0.03410625
156	0x3d156f3f	0.036483046
157	0xbd27edb8	-0.04099819
158	0xbc917174	-0.017754294
159	0xbdc2d049	-0.095123835
160	0xbd018ff9	-0.031631444
161	0xbd1fedc1	-0.0390451
162	0xbdb9043e	-0.09034012
163	0x3d09fd85	0.03368904
164	0x3b895e8e	0.00419218
165	0xbdb10dae	-0.08645187
166	0x3d0e9446	0.034809373
167	0x3d66c11a	0.0563365
168	0xbd62a4ac	-0.055332825
169	0xbd227123	-0.039658677
170	0xbd209204	-0.03920175
171	0xbd0cbb3f	-0.03435826
172	0x3c56acb7	0.013102702
173	0x3d62f252	0.055406876
174	0x3d83298a	0.06404407
175	0xbd94d104	-0.07266429
176	0x3d9b73be	0.075904354
177	0x3b023140	0.001986578
178	0xbdb4f9b7	-0.08836692
179	0x3d30e86c	0.043190405
180	0x3d7c1450	0.06154281
181	0xbca16d6e	-0.0197055
182	0xbdb49c7c	-0.088189095
183	0x3d677f0f	0.056517657
184	0xbd4c03a0	-0.049808145
185	0xbd860999	-0.06544799
186	0xbd03a9b2	-0.032144256
187	0xbaea41c0	-0.0017872378
188	0x3c2c50a4	0.010517273
189	0x3ce71c63	0.028211778
190	0x3cb7cca0	0.02243644
191	0xbc909848	-0.017650738
192	0xbd7154be	-0.058918707
193	0xbd0f0acf	-0.034922417
194	0x3d432f0b	0.047652286
195	0x3c5abae7	0.013350225
196	0x3d47b100	0.048752785
197	0xbb5e9d61	-0.0033968317
198	0x3bf3d3c0	0.007441014
199	0xbdb99196	-0.090609714
200	0xbcb60e79	-0.022223698
201	0xbd5dc2c9	-0.05414084
202	0xbdbb1884	-0.09135535
203	0x3d7f573d	0.062339056
204	0x3d2b2877	0.041786637
205	0x3d943810	0.072372556
206	0x3d8227dc	0.06355259
207	0x3d5316c9	0.0515354
208	0xbd5270c0	-0.051377058
209	0x3d87c204	0.066288024
210	0xbda4c04a	-0.08044489
211	0x3c83132d	0.016000355
212	0xbd88b52e	-0.06675182
213	0x3d417f97	0.04724082
214	0xbccda3b2	-0.02510247
215	0x3d84105c	0.06448433
216	0x3ca7ff0c	0.020507358
217	0x3d74f62e	0.059805088
218	0xbc9cbf48	-0.019134179
219	0xbd9f7840	-0.07786608
220	0xbdba2a6a	-0.09090121
221	0xbdb25fd4	-0.08709684
222	0xbd3b7b86	-0.045772098
223	0x3d8e8c90	0.06960404
224	0x3cd4999e	0.025952157
225	0x3c15f380	0.009152293
226	0x3d82ff63	0.063963674
227	0xbd9bfd72	-0.076167
228	0x3c5e1398	0.013554476
229	0x3d29fb8c	0.04149966
230	0xbdbcb0f1	-0.092134364
231	0xbda230f9	-0.07919497
232	0x3d9e91da	0.07742663
233	0xbcc511ee	-0.024056401
234	0xbdb29dd4	-0.087215096
235	0x3d8c2def	0.06844699
236	0xbbe6923d	-0.007036476
237	0x3d1ca159	0.03823981
238	0x3b3af015	0.0028524448
239	0x3d1b30d6	0.03788837
240	0x3d832e41	0.064053066
241	0x3cf8bfaa	0.03036483
242	0xbda08569	-0.07837946
243	0x3d4b3c5e	0.049618118
244	0xbd9de755	-0.07710139
245	0x3d1b3908	0.037896186
246	0xbda4df2a	-0.08050378
247	0xbcb0b5b4	-0.021571018
248	0xbc7bc262	-0.015366169
249	0x3c776500	0.015099764
250	0x3d3055c8	0.043050557
251	0xbd82954c	-0.06376132
252	0xbda6e57d	-0.0814924
253	0x3d5edc2a	0.054409184
254	0xbd87ca2c	-0.06630358
255	0xbd9f8e02	-0.07790758

net.2.bias f4 [128]
0	0x3d2cd4f3	0.04219527
1	0x3d873793	0.06602397
2	0x3d11883a	0.035530306
3	0x3d7c1e59	0.06155238
4	0x3d853a16	0.0650522
5	0xbc410253	-0.011780339
6	0xbdaf9f0b	-0.08575257
7	0x3d7d5242	0.061846025
8	0xbc6f0c1b	-0.0145902885
9	0xbd2ea895	-0.04264124
10	0x3ce5d5dd	0.02805608
11	0xbd510dc2	-0.05103851
12	0xbdb1fdb6	-0.0869097
13	0x3d866b66	0.065634534
14	0xbdb438a5	-0.087998666
15	0x3daef85c	0.085434645
16	0xbbde77ca	-0.0067891823
17	0xbc4a32dc	-0.012341227
18	0xbd59a6ee	-0.053137712
19	0xbd1f9885	-0.038963813
20	0x3d7d1a58	0.0617927
21	0xbc1a1dc0	-0.009406507
22	0xbbde2d1a	-0.006780279
23	0x3cc5b946	0.024136197
24	0x3d97cb94	0.07411876
25	0x3d69ea52	0.05710823
26	0x3d582504	0.052769676
27	0x3bc50880	0.006012976
28	0xbc96bd6a	-0.018400867
29	0x3d007bba	0.031367995
30	0xbd4dea5f	-0.05027234
31	0xbd65c910	-0.05609995
32	0xbda6bd14	-0.081415325
33	0xbda2bcc8	-0.079461634
34	0xbc87da4c	-0.016583584
35	0xbb47332c	-0.003039549
36	0x3b25b660	0.0025285706
37	0xbcb87ff4	-0.02252195
38	0xbd378854	-0.044807747
39	0x3d4c7b57	0.049922314
40	0x3d25c2b1	0.040468875
41	0x3c800de8	0.015631631
42	0xbc875c5c	-0.016523533
43	0xbda8fb40	-0.08251047
44	0x3cf954f5	0.030436018
45	0xbd910fb7	-0.070830755
46	0x3d1a0f16	0.037612043
47	0xbcf794af	-0.030222265
48	0xbcbd4864	-0.023105808
49	0xbd7f82d5	-0.06238063
50	0x3d985628	0.07438308
51	0xbb874777	-0.0041283923
52	0x3ca7e808	0.020496383
53	0x3c9b0b66	0.018926334
54	0xbb3b675f	-0.002859555
55	0xbc18ded3	-0.009330469
56	0xbd157f7e	-0.03649854
57	0x3c70c91d	0.014696387
58	0xbceb5f0b	-0.028731843
59	0x3d333e24	0.043760434
60	0x3dad7231	0.08469046
61	0xbda249f1	-0.079242595
62	0x3d356bc2	0.04429222
63	0x3d839437	0.06424754
64	0x3c1f8384	0.009735946
65	0x3d2a163a	0.041525103
66	0x3c6f5890	0.014608517
67	0x3cc83ed5	0.024444023
68	0xbc81a3ce	-0.015825178
69	0x3da7aa62	0.08186795
70	0x3aad9200	0.0013242364
71	0xbc882e4b	-0.016623637
72	0xbd304bd2	-0.043041058
73	0x3d955001	0.0729065
74	0xbd70a7e4	-0.058753863
75	0x3a9ed2d4	0.0012117275
76	0xbdb300ce	-0.08740388
77	0x3d12b2c8	0.03581503
78	0x3d977db7	0.07397025
79	0xbce93373	-0.028466916
80	0x3d10291f	0.035195466
81	0x3d80a9e3	0.06282403
82	0xbda23716	-0.07920663
83	0xbc865980	-0.016400099
84	0xbdad48e6	-0.0846117
85	0xbcad9534	-0.02118931
86	0x3da2453f	0.07923364
87	0xbd6d26dd	-0.05789839
88	0x3d82b66c	0.063824505
89	0xbc1740a0	-0.009231716
90	0x3d633528	0.055470616
91	0x3d5da312	0.054110594
92	0xbc6ae9c3	-0.01433796
93	0x3da874e5	0.08225421
94	0x3db21c64	0.08696821
95	0xbdb18ddf	-0.08669638
96	0x3d544bb7	0.05183002
97	0xbd0d2ddd	-0.034467567
98	0x3d056fd8	0.032577366
99	0x3d490604	0.049078003
100	0xbc39cae2	-0.011339875
101	0x3d03abd8	0.032146305
102	0x3c976648	0.018481389
103	0xbd88a7da	-0.0667264
104	0xbcb5e0d8	-0.02220194
105	0xbd732509	-0.05936149
106	0xbdb2be3d	-0.08727691
107	0x3d05931c	0.032610998
108	0x3cc958c4	0.02457846
109	0xbcfd2e28	-0.030905798
110	0xbd658114	-0.0560313
111	0x3d8ce850	0.068802476
112	0x3d9e53ff	0.07730865
113	0xbd90fb99	-0.070792384
114	0xbd91c186	-0.0711699
115	0x3d282e82	0.04105998
116	0x3daefa5d	0.08543847
117	0xbcd97cd4	-0.02654878
118	0x3d36c4d4	0.044621304
119	0xbc029470	-0.007969961
120	0xbd503fb0	-0.050841987
121	0x3d22261d	0.03958713
122	0x3d3dc15e	0.046326987
123	0xbc8dbde0	-0.017302454
124	0x3d5eb4ab	0.054371517
125	0x3d9715c4	0.07377198
126	0xbd755064	-0.05989112
127	0x3ce5f9b1	0.028073164

net.4.weight f4 [1, 128]
0	0xbdbbd0fd	-0.09170721
1	0x3d58fda2	0.052976258
2	0x3d8fce6b	0.07021793
3	0x3cb7736d	0.022393906
4	0xbd18df66	-0.037322424
5	0xbb08fd2d	-0.0020902858
6	0x3d93c0ff	0.072145455
7	0xbd89b494	-0.06723896
8	0x3ce03b15	0.027371923
9	0x3d88755d	0.0666301
10	0xbafb2206	-0.001915992
11	0x3d8d2636	0.06892054
12	0x3aab28e5	0.0013058452
13	0xbd9fba19	-0.07799167
14	0x3d78ce5e	0.060743682
15	0xbd9fd3c1	-0.07804061
16	0x3d46c558	0.048528045
17	0x3d233b8b	0.039851706
18	0xbd2c6b0d	-0.04209428
19	0x3c9b8944	0.018986352
20	0xbc767770	-0.015043125
21	0x3b9fd7a6	0.004878002
22	0x3d98a813	0.074539326
23	0xbd88d938	-0.06682056
24	0x3d77aa77	0.060465302
25	0xbc31db08	-0.010855444
26	0x3d0b2527	0.033970978
27	0xbc830558	-0.015993759
28	0x3d7dd634	0.06197186
29	0xbda020d6	-0.07818763
30	0xbc91309e	-0.017723378
31	0xbc6c6ac8	-0.0144297555
32	0x3c89163b	0.016734233
33	0xbd7a52fc	-0.061114296
34	0xbba91b60	-0.005160734
35	0xbd8e493e	-0.069475636
36	0x3d283f66	0.041076086
37	0x3cf05acc	0.02934017
38	0xbacc4fc0	-0.0015587732
39	0x3cb38ffc	0.021919243
40	0x3d407328	0.04698482
41	0xbc2678f8	-0.010160677
42	0xbcc5a850	-0.02412811
43	0xbd30a4d1	-0.04312593
44	0x3d6003fd	0.054691304
45	0x3cc9223a	0.024552453
46	0x3d752966	0.059853934
47	0xbb1019c9	-0.0021988025
48	0xbd8b807d	-0.068116166
49	0x3d7cce01	0.061719898
50	0x3d991ae8	0.07475835
51	0xbd1eb430	-0.03874606
52	0xbdb4632f	-0.0880798
53	0x3b39bc78	0.0028341096
54	0x3d17846d	0.036991525
55	0x3d9cf304	0.07663539
56	0xbd65f5c1	-0.056142572
57	0x3ca1c3d0	0.019746691
58	0xbd8d5763	-0.06901433
59	0x3b5a986e	0.0033355015
60	0x3da83925	0.082140245
61	0x3cc3f851	0.023922117
62	0xbd323688	-0.043509036
63	0x3c965e65	0.018355558
64	0xbb9643f9	-0.0045857397
65	0x3b8c9090	0.004289694
66	0xbd9b8708	-0.075941145
67	0xbda0ee68	-0.078579724
68	0x3cf91712	0.030406509
69	0xbdafbe6b	-0.08581241
70	0xbc2cdec0	-0.010551155
71	0xbd1a8108	-0.03772071
72	0x3c31bc0c	0.0108480565
73	0xbda7bb46	-0.081900164
74	0xbc698610	-0.014253154
75	0x3c34c9b9	0.011034423
76	0x3d9da9d6	0.07698409
77	0x3d5a56ce	0.05330544
78	0x3cdc6549	0.026903765
79	0xbbdfce06	-0.00682998
80	0xbbaf941a	-0.0053582313
81	0xbac3d632	-0.0014941155
82	0x3cf8188f	0.030285148
83	0x3c19fa11	0.009397999
84	0xbda6bddb	-0.08141681
85	0xbc8793fc	-0.016550057
86	0x3cea4b00	0.028600216
87	0x3c0a1f61	0.008430333
88	0xbd522cbf	-0.051312204
89	0xbda7ffe1	-0.08203102
90	0xbd91d73a	-0.07121129
91	0x3db38b73	0.08766832
92	0xbda36820	-0.07978845
93	0xbd165db3	-0.036710452
94	0xbd3d5490	-0.046223223
95	0x3dab2041	0.08355761
96	0xbb2067a7	-0.0024475844
97	0x3d7b7d4b	0.061398786
98	0xbc351b58	-0.011053883
99	0xbcdb0870	-0.026737422
100	0xbd9e661f	-0.07734322
101	0xbd5ff7c9	-0.054679666
102	0xbda80bf0	-0.08205402
103	0xbd7097ab	-0.05873839
104	0x3da1969b	0.07890054
105	0xbcc31448	-0.023813382
106	0x3d14fbe3	0.03637303
107	0x3d0e2624	0.034704342
108	0x3da28899	0.0793621
109	0xbd8f332f	-0.06992184
110	0xbb81e0ca	-0.0039635645
111	0xbc746f9c	-0.014919188
112	0xbc9ad047	-0.018898143
113	0x3da560e5	0.08075122
114	0x3d11400a	0.035461463
115	0xbdbfaea1	-0.0935948
116	0xbced6d2b	-0.02898272
117	0xbd2dd653	-0.042440724
118	0x3d6a5123	0.057206284
119	0xbda3cf1e	-0.07998489
120	0x3aeadd92	0.0017918816
121	0xbd7d5d97	-0.061856832
122	0xbcf97012	-0.030448947
123	0x3c4c78c2	0.012479963
124	0x3da362b5	0.07977811
125	0x3d7a3218	0.06108293
126	0xbdae21a3	-0.085025094
127	0xbcdbf9b6	-0.02685247
