runs/cycle0/static_surrogate.pt (torch, 746346 bytes, 54 tensors)

weight f4 [128, 13]
0.17115545 -0.14235488 0.035155434 -0.13548812 0.0060342844 0.20334308 0.14847083 -0.13010763
0.0856944 -0.21044981 -0.09619635 0.03468725 -0.057347152 0.24544097 0.1494504 -0.19215934
-0.009586683 -0.19969298 0.14444572 0.0966806 0.0046428577 -0.1506141 -0.2806013 -0.073215455
-0.042449363 0.25970933 -0.18482076 0.1491309 0.15880838 0.20878886 0.21463834 -0.24913166
-0.07212728 -0.11455997 0.0009336368 -0.08276744 0.24313322 -0.06637268 -0.13228111 -0.14208734
0.14567634 0.15147401 -0.2574917 -0.29032916 -0.25529787 -0.11745245 0.16641244 0.05858762
-0.21471807 -0.036306232 -0.043320823 -0.18295309 -0.2975265 0.27131686 0.04187984 -0.27240407
0.035432335 -0.030718898 0.09152654 -0.1956594 0.22700721 0.27104098 -0.06834349 -0.10672024
-0.05150173 -0.060294427 0.07301836 -0.06529208 0.21621287 0.10958165 0.14949942 -0.19948836
0.040051397 -0.16844624 -0.23678017 0.2536389 -0.23086105 -0.18493922 -0.04901483 -0.072485484
0.029258465 -0.006882726 -0.00966028 -0.26271135 -0.2719998 -0.16943392 0.04402801 0.0819402
-0.08197574 -0.11273633 -0.07634388 -0.1663098 -0.05454743 0.21377622 0.11735525 0.093932495
0.14539683 -0.27944323 -0.083522685 0.050096903 0.19443505 0.12142676 -0.094668075 0.06347548
-0.0308341 0.27520257 0.27393913 -0.12033829 0.15442592 -0.27370375 0.17893364 0.07725819
0.06376214 0.1561058 0.25046477 -0.24019042 0.17991926 -0.11683353 0.033496603 -0.068151176
-0.075016744 -0.25008082 -0.13181314 0.069123626 0.2456725 -0.19600135 -0.14833806 0.09458399
-0.15698731 0.022263609 -0.16184865 -0.19417605 -0.20601065 -0.027686542 0.01953906 -0.13537027
-0.14248766 0.20264018 0.031759325 0.09068237 0.14404383 0.13865227 0.1970571 -0.12582834
-0.1257252 -0.23613924 0.15607402 -0.11618042 -0.00023554265 -0.011750774 0.203309 -0.23429881
-0.13650158 0.035920978 0.11677092 -0.047975205 -0.24494338 -0.2825446 -0.24850136 -0.08581118
0.19626154 0.03727073 0.17354709 0.1666355 0.25653055 0.079586826 -0.209646 0.29191655
0.30104607 0.080685504 -0.006121079 0.022752093 -0.2882344 -0.15278247 -0.0054572765 -0.29161328
0.22087583 0.24578631 -0.048064303 -0.057479456 -0.03699665 -0.12026441 -0.25431955 -0.14895467
-0.23900974 0.14638525 -0.16830038 -0.06520015 -0.15470785 -0.030563178 -0.13643414 0.25266343
0.25701556 -0.08750226 -0.18797414 0.1689644 -0.25451148 -0.104753934 0.20891468 0.03797407
0.21907482 0.19059592 0.18726912 0.15796746 0.17442296 -0.16213542 0.21518871 -0.106720515
0.044025876 -0.12440551 0.23105042 -0.2300444 -0.17734689 -0.105491735 -0.11061004 -0.123752415
-0.10708595 -0.10468689 -0.21858272 -0.25011516 0.11219689 -0.048013493 0.0844353 0.20820855
-0.22513829 -0.13840552 0.157514 -0.08107479 -0.06983148 -0.15263443 -0.16377345 -0.03833595
-0.2940403 0.28188902 -0.09145405 -0.16249102 0.13399002 0.086425185 0.19212247 0.22899047
0.29181868 0.0030418858 0.21157736 0.1702335 0.1252419 0.10072673 0.15140136 -0.17514773
-0.25382757 0.02663747 -0.06703974 0.25031066 0.16556448 -0.20021164 -0.124861814 -0.18625039
00000000: 6043 2f3e 7ac5 11be 25ff 0f3d 66bd 0abe
00000010: 3fbb c53b 2b39 503e bd08 183e ef3a 05be
00000020: 8c80 af3d 2880 57be 9802 c5bd 3814 0e3d
00000030: d9e4 6abd e154 7b3e 8709 193e 6bc5 44be
00000040: 7611 1dbc 517c 4cbe 94e9 133e 7a00 c63d
00000050: 1d23 983b 953a 1abe f9aa 8fbe fcf1 95bd
00000060: 62df 2dbd 9ff8 843e a741 3dbe c5b5 183e
00000070: aa9e 223e bfcc 553e 27ca 5b3e 5f1c 7fbe
00000080: 78b7 93bd 6b9e eabd 4ebf 743a fa81 a9bd
00000090: eaf7 783e 66ee 87bd b374 07be 587f 11be
000000a0: 2e2c 153e 011c 1b3e f4d5 83be 06a6 94be
000000b0: 67b6 82be e98a f0bd 0668 2a3e 92f9 6f3d
000000c0: 0edf 5bbe d8b5 14bd 2d71 31bd 0e58 3bbe
000000d0: 6555 98be 0bea 8a3e 328a 2b3d 8c78 8bbe
000000e0: 7f21 113d 33a6 fbbc 4472 bb3d f05a 48be
000000f0: 9474 683e e2c5 8a3e acf7 8bbd 2490 dabd
00000100: 7af3 52bd 4af7 76bd a68a 953d dbb7 85bd
00000110: e866 5d3e 586c e03d 6016 193e ad46 4cbe
00000120: ef0c 243d 2c7d 2cbe 8076 72be f5dc 813e
00000130: d766 6cbe b560 3dbe c6c3 48bd 4573 94bd
00000140: 73af ef3c 7e88 e1bb 2746 1ebc 1a82 86be
00000150: 8f43 8bbe 1680 2dbe b756 343d 43d0 a73d
00000160: e6e2 a7bd 4ee2 e6bd 2e5a 9cbd 1e4d 2abe
00000170: 206d 5fbd 27e8 5a3e f357 f03d ae5f c03d
00000180: e8e2 143e 2f13 8fbe f10d abbd 6932 4d3d
00000190: fb19 473e 98ae f83d 56e1 c1bd 6fff 813d
000001a0: cb97 fcbc 5ae7 8c3e c041 8c3e ec73 f6bd
000001b0: d421 1e3e e622 8cbe 613a 373e 8b39 9e3d
000001c0: ba95 823d 33da 1f3e eb3c 803e 7af4 75be
000001d0: c13c 383e 6b46 efbd bc33 093d d892 8bbd
000001e0: 61a2 99bd 980a 80be 06fa 06be b090 8d3d
000001f0: 9291 7b3e 94b4 48be efe5 17be 40b5 c13d
00000200: 48c1 20be 2c62 b63c a7bb 25be 16d6 46be
00000210: 75f4 52be e3ce e2bc 6110 a03c 819e 0abe
00000220: 49e8 11be e880 4f3e 1116 023d aeb7 b93d
00000230: 3a80 133e dcfa 0d3e 56c9 493e 25d9 00be
00000240: 1bbe 00be 7cce 71be ded1 1f3e 00f0 edbd
00000250: 00fc 76b9 5286 40bc 3c30 503e 07ec 6fbe
00000260: 12c7 0bbe e021 133d 9825 ef3d a681 44bd
00000270: 70d2 7abe b0a9 90be 2477 7ebe c6bd afbd
00000280: c9f8 483e 31a9 183d 54b6 313e 7fa2 2a3e
00000290: f957 833e 6bfe a23d 71ad 56be 1676 953e
000002a0: b622 9a3e 713e a53d 5593 c8bb 9962 ba3c
000002b0: 7693 93be 0273 1cbe f4d2 b2bb 564e 95be
000002c0: 462d 623e 68af 7b3e 13df 44bd 946f 6bbd
000002d0: cd89 17bd 304d f6bd 2c36 82be 9387 18be
000002e0: f8be 74be 04e6 153e ef56 2cbe a887 85bd
000002f0: bc6b 1ebe a15f fabc 64b5 0bbe 1a5d 813e
00000300: 8b97 833e 6334 b3bd 4b7c 40be 0105 2d3e
00000310: 544f 82be 3b89 d6bd bbed 553e b38a 1b3d
00000320: 2655 603e 942b 433e 7ac3 3f3e 39c2 213e
00000330: ef9b 323e d406 26be 6e5a 5c3e 4990 dabd
00000340: 7a54 343d 51c8 febd 7b98 6c3e c290 6bbe
00000350: 6c9a 35be 0d0c d8bd 8487 e2bd e871 fdbd
00000360: e14f dbbd 1566 d6bd 26d4 5fbe 180f 80be
00000370: 7cc7 e53d cca9 44bd 6aec ac3d 9f34 553e
00000380: a78a 66be 2dba 0dbe 5a4b 213e 8a0a a6bd
00000390: cf03 8fbd 334c 1cbe 3ab4 27be 2806 1dbd
000003a0: 738c 96be c253 903e 434c bbbd 0c64 26be
000003b0: ae34 093e b0ff b03d c1bb 443e 7a7c 6a3e
000003c0: 4269 953e 605a 473b bca7 583e b151 2e3e
000003d0: 6a3f 003e d149 ce3d f508 1b3e ed59 33be
000003e0: b0f5 81be d336 da3c 224c 89bd b828 803e
000003f0: bc89 293e 4804 4dbe 8db7 ffbd 6cb8 3ebe

bias f4 [128]
-0.046140257 0.045253526 0.076183535 0.050415043 0.18563767 0.16191863 0.0137654515 0.01796016
-0.11949531 0.021645358 -0.079574086 0.17581996 -0.13240615 0.13695262 -0.2351011 0.20401326
-0.030268963 -0.24659236 -0.14237282 -0.026439765 0.21086948 0.2817283 0.16616821 -0.075135335
-0.0997265 0.049868185 -0.10092832 -0.2451856 0.2475535 -0.15683214 -0.028288053 -0.18290055
-0.28064537 -0.11646107 -0.05433586 0.059369493 -0.16678886 -0.073419034 -0.22235177 -0.15396057
-0.1092106 0.2846619 0.047845837 -0.1850883 -0.21003328 -0.00039101572 0.059483156 -0.079401754
-0.07367086 -0.24180582 -0.2008637 -0.15767354 0.11537003 -0.22944461 -0.0005194582 0.19871494
0.1448168 -0.22858235 0.00275228 -0.12407564 0.02348101 0.044719435 -0.1414205 0.04076048
-0.14876917 -0.18173449 -0.08493269 0.09223928 -0.07485071 -0.044428144 -0.09187932 0.2465404
-0.12732244 0.060299236 0.026586844 -0.09329659 -0.03624661 0.09149357 0.2345302 0.13572107
-0.08222266 -0.011433269 -0.10190788 -0.07366359 0.19721514 -0.10866209 0.01126717 0.2006823
0.23907016 -0.2617343 -0.19825374 -0.11171502 -0.22088526 0.1605454 0.2805325 -0.23450111
0.18775362 0.28302246 0.01523783 -0.11868516 -0.16783209 0.090410784 -0.016271353 -0.1521121
0.06567214 -0.15043512 -0.21704018 0.2652937 0.08875253 -0.13934378 0.17745797 0.035294805
0.24781935 0.037170533 -0.20088108 -0.25334615 -0.24876212 -0.18380472 -0.16350266 0.24879913
-0.25096163 -0.21377914 -0.08206969 0.21690185 0.05167074 0.2645273 -0.086788654 0.19558083
00000000: 91fd 3cbd c35b 393d 1d06 9c3d 0180 4e3d
00000010: cd17 3e3e ffcd 253e 7d88 613c 2f21 933c
00000020: f5b9 f4bd 9b51 b13c bdf7 a2bd 260a 343e
00000030: 7a95 07be 4f3d 0c3e 58be 70be dae8 503e
00000040: 9ef6 f7bc b582 7cbe 2eca 11be 3598 d8bc
00000050: 2bee 573e b13e 903e 0028 2a3e 8ee0 99bd
00000060: 683d ccbd 9542 4c3d 82b3 cebd ef11 7bbe
00000070: aa7e 7d3e 9b98 20be 59bc e7bc 484a 3bbe
00000080: c0b0 8fbe 2483 eebd 478f 5ebd 6d2d 733d
00000090: b3ca 2abe b85c 96bd 2fb0 63be d7a7 1dbe
000000a0: cfa9 dfbd 34bf 913e fff9 433d ca87 3dbe
000000b0: f712 57be 3e01 cdb9 9ca4 733d 639d a2bd
000000c0: bfe0 96bd f29b 77be 37af 4dbe 2c75 21be
000000d0: 1f47 ec3d 87f3 6abe 402c 08ba ee7b 4b3e
000000e0: db4a 143e 7e11 6abe 995f 343b 5f1b febd
000000f0: 3f5b c03c ba2b 373d 89d0 10be 76f4 263d
00000100: f256 18be 9b18 3abe 31f1 adbd f3e7 bc3d
00000110: 544b 99bd 49fa 35bd 3a2b bcbd 1675 7c3e
00000120: d060 02be 55fc 763d a7cc d93c 4812 bfbd
00000130: 5377 14bd fb60 bb3d af28 703e 77fa 0a3e
00000140: 5b64 a8bd 9b52 3bbc 14b5 d0bd f0dc 96bd
00000150: c4f2 493e 3b8a debd f099 383c a97f 4d3e
00000160: cfce 743e 0a02 86be 0703 4bbe d8ca e4bd
00000170: bf2f 62be 0366 243e f5a1 8f3e 0f21 70be
00000180: 7c42 403e 52e8 903e 17a8 793c 3511 f3bd
00000190: 2ddc 2bbe 4a29 b93d 804b 85bc 46c3 1bbe
000001a0: 1d7f 863d aa0b 1abe c83f 5ebe 93d4 873e
000001b0: e3c3 b53d 23b0 0ebe 8bb7 353e 4991 103d
000001c0: 5bc4 7d3e 2140 183d c5b3 4dbe 96b6 81be
000001d0: 7fbb 7ebe 4e37 3cbe 3e6d 27be 33c5 7e3e
000001e0: 0b7e 80be ebe8 5abe 2714 a8bd 851b 5e3e
000001f0: b3a4 533d 1f70 873e 40be b1bd 5746 483e

weight f4 [128, 128]
-0.0035020383 0.031092985 0.054789267 -0.07191944 -0.07058163 -0.006012608 0.045659553 -0.002106349
0.066219546 -0.06859875 -0.028739745 -0.015365641 0.04867766 0.0053395643 -0.001361851 0.105503455
-0.10238329 0.02409334 -0.017269589 -0.06090914 0.027584082 0.07631536 0.07608793 0.038851157
-0.023081213 0.060729135 -0.021187315 0.10993237 -0.05233889 -0.0048793787 0.08548409 -0.0029437095
-0.06190488 0.06991707 0.07075284 0.103938825 0.04453066 0.04173345 0.058123335 0.05602324
0.015648404 0.036556773 -0.048535984 -0.016818501 -0.067412466 0.012613282 0.05905231 0.04877997
0.06431585 -0.04359177 0.02128877 0.0526761 -0.018927518 -0.037207626 -0.041004978 0.071863785
-0.024193505 -0.015381979 -0.0059100143 0.1015884 -0.061803956 -0.016603746 -0.016540403 -0.030449659
-0.043351393 0.034419227 0.0863657 0.024840256 -0.047619298 -0.017178508 0.015981972 0.015544731
0.06544432 -0.0049675144 -0.017364014 -0.027207434 -0.01961077 -0.0068581463 0.01035733 0.0027540931
0.08985522 -0.08890236 -0.04251882 -0.022532823 0.08363408 0.09641525 0.045479324 -0.056537464
-0.053055327 0.09911639 0.011623061 0.020857075 -0.086292945 0.020789245 0.042064134 0.011934885
0.06391384 -0.101713836 0.040444545 -0.043112535 0.05063061 -0.04734642 0.09008257 -0.034113888
0.04554935 -0.049379688 -0.0074232672 0.01792018 -0.039588522 -0.09858825 0.04286917 0.083002076
-0.0989275 -0.0010403391 -0.04047491 0.021789765 0.025371442 -0.088873245 -0.07835299 -0.073633485
0.017953897 0.085390404 -0.022326414 0.038127277 0.11207237 -0.013629866 0.005562809 -0.041251708
-0.029708166 0.008020313 0.06109227 0.041024797 -0.05376659 0.084726624 0.027121238 0.07314236
-0.037437137 0.027568648 -0.0964111 0.047484104 -0.043484967 -0.03673825 0.048934326 -0.054894153
0.046107065 0.062363792 -0.015892603 0.0045900424 -0.07140826 -0.0403677 0.03789294 0.061979275
0.0152975535 0.015052314 -0.06353967 0.07141611 0.10138571 -0.03594864 0.0051396126 0.0762973
0.03142609 0.021206584 -0.012947661 -0.07114273 -0.029143665 -0.080859706 0.0021108685 -0.0886863
0.10211941 0.019429607 0.0013178716 0.055022184 -0.032092422 0.035778567 0.03928893 -0.020991093
0.02413843 0.0015190106 0.07128785 -0.06667141 0.04217428 0.066111654 -0.06405397 0.012111839
-0.021183372 -0.012565081 0.02820013 -0.0741865 0.0052620466 -0.02529035 0.052053515 -0.03267002
0.04896282 0.02577483 -0.014685995 -0.04787202 -0.0699908 0.041705634 -0.002303406 0.06580235
0.028422851 -0.048858963 0.035321005 0.0042275763 -0.034127936 0.018779784 0.0150573095 0.01224016
0.05076009 -0.067769416 0.03708229 -0.10158483 -0.099565804 0.07021726 0.047037397 -0.064161114
-0.07201219 0.05375117 -0.042133328 -0.044480696 0.08379207 0.022140617 -0.0061518983 0.07008816
0.01580514 0.050036713 0.030917382 0.0028135786 -0.10275594 -0.045804627 0.008596472 0.051255737
-0.025185075 0.0982717 3.849191e-05 0.09913192 -0.034749266 -0.008772332 -0.0037174395 -0.037384447
0.06138308 0.006172036 0.00457976 -0.07971074 -0.04897261 -0.049057946 0.061494492 0.06827222
0.059165858 0.034591068 -0.080827296 0.045083817 0.028012473 -0.057788387 0.07540277 0.06877475
00000000: 7482 65bb b7b6 fe3c b66a 603d 804a 93bd
00000010: 1a8d 90bd 6905 c5bb 8305 3b3d ac0a 0abb
00000020: 1d9e 873d 807d 8cbd 9d6f ebbc 2bc0 7bbc
00000030: 3a62 473d 83f7 ae3b 2380 b2ba 3212 d83d
00000040: 55ae d1bd 655f c53c f478 8dbc dd7b 79bd
00000050: 03f8 e13c 3a4b 9c3d fdd3 9b3d 6422 1f3d
00000060: d014 bdbc 1dbf 783d 0591 adbc 3924 e13d
00000070: 4e61 56bd 32e3 9fbb 4812 af3d 40eb 40bb
00000080: f98f 7dbd ae30 8f3d dde6 903d e1dd d43d
00000090: c865 363d b2f0 2a3d bc12 6e3d a078 653d
000000a0: 1531 803c 8ebc 153d abcd 46bd f4c6 89bc
000000b0: 8c0f 8abd f0a7 4e3c d6e0 713d 81cd 473d
000000c0: 07b8 833d 498d 32bd c965 ae3c e5c2 573d
000000d0: e20d 9bbc 0667 18bd d6f4 27bd 522d 933d
000000e0: 7531 c6bc b204 7cbc cba8 c1bb 940d d03d
000000f0: 2526 7dbd 9404 88bc bd7f 87bc 9071 f9bc
00000100: 3b91 31bd 2dfb 0c3d 80e0 b03d cb7d cb3c
00000110: 740c 43bd f1b9 8cbc a0ec 823c 54af 7e3c
00000120: ac07 863d 88c6 a2bb fa3e 8ebc 20e2 debc
00000130: c4a6 a0bc 4dba e0bb cab1 293c 047e 343b
00000140: 0306 b83d 7112 b6bd 3728 2ebd c196 b8bc
00000150: 5848 ab3d 5c75 c53d 8748 3a3d d493 67bd
00000160: 8b50 59bd 89fd ca3d a76e 3e3c 75dc aa3c
00000170: 5bba b0bd 354e aa3c 714b 2c3d 898a 433c
00000180: 42e5 823d 584f d0bd 2ea9 253d c596 30bd
00000190: 0b62 4f3d 52ee 41bd 367d b83d 01bb 0bbd
000001a0: f591 3a3d 5b42 4abd e13e f3bb 57cd 923c
000001b0: 9327 22bd a3e8 c9bd 9597 2f3d fefc a93d
000001c0: 809a cabd fd5b 88ba 05c9 25bd 7380 b23c
000001d0: c5d7 cf3c 2d03 b6bd 8877 a0bd 27cd 96bd
000001e0: 0d14 933c 2ae1 ae3d e2e5 b6bc 592b 1c3d
000001f0: 3386 e53d cd4f 5fbc 3948 b63b 8df7 28bd
00000200: 8a5e f3bc a267 033c e33b 7a3d 9e09 283d
00000210: 5b3a 5cbd 2785 ad3d 5c2d de3c a9cb 953d
00000220: af57 19bd a5d7 e13c 2f73 c5bd b17e 423d
00000230: 4b1d 32bd d97a 16bd 5c6f 483d b1d8 60bd
00000240: c3da 3c3d 2d71 7f3d 3431 82bc 1168 963b
00000250: 7e3e 92bd 9a58 25bd a135 1b3d fbdd 7d3d
00000260: 97a2 7a3c fb9d 763c 1621 82bd 9c42 923d
00000270: 50a3 cf3d e23e 13bd 326a a83b c241 9c3d
00000280: a5b8 003d 6eb9 ad3c 6d22 54bc 48b3 91bd
00000290: b2be eebc c699 a5bd 7f56 0a3b 2aa1 b5bd
000002a0: fb23 d13d d72a 9f3c 6fbc ac3a f15e 613d
000002b0: 5873 03bd 8c8c 123d 6eed 203d 83f5 abbc
000002c0: f5bd c53c 8a19 c73a 5dff 913d 058b 88bd
000002d0: f0be 2c3d 8c65 873d ba2e 83bd bc70 463c
000002e0: c088 adbc c5dd 4dbc f603 e73c 17ef 97bd
000002f0: 3f6d ac3b b52d cfbc 1136 553d 00d1 05bd
00000300: 3d8d 483d bc25 d33c 879d 70bc 7415 44bd
00000310: 5657 8fbd 87d3 2a3d bdf4 16bb 62c3 863d
00000320: 0ad7 e83c 5620 48bd c2ac 103d 7b87 8a3b
00000330: bcc9 0bbd 10d8 993c efb2 763c f48a 483c
00000340: d0e9 4f3d b1ca 8abd 99e3 173d b50b d0bd
00000350: 28e9 cbbd 11ce 8f3d 49aa 403d e766 83bd
00000360: 217b 93bd 302a 5c3d ff93 2cbd 6431 36bd
00000370: 2d9b ab3d 3d60 b53c dd95 c9bb 628a 8f3d
00000380: c879 813c 4cf3 4c3d 7346 fd3c 0464 383b
00000390: b571 d2bd a29d 3bbd 38d8 0c3c 89f1 513d
000003a0: ee50 cebc ac42 c93d 6072 2138 ad05 cb3d
000003b0: 3f55 0ebd d4b9 0fbc 49a0 73bb 6f20 19bd
000003c0: d36c 7b3d ca3e ca3b d011 963b 623f a3bd
000003d0: 8197 48bd fcf0 48bd a6e1 7b3d 4ed2 8b3d
000003e0: e657 723d 5daf 0d3d c888 a5bd cfa9 383d
000003f0: 6a7a e53c 84b3 6cbd c46c 9a3d c7d9 8c3d

bias f4 [128]
0.044381306 -0.02877897 0.10672554 0.053653084 -0.036986634 0.042693794 -0.024374016 0.0020375655
-0.06268835 -0.058029916 0.026394047 0.0018331397 0.063010946 0.020741593 -0.0057073655 0.041002374
0.05285145 0.042269852 0.036655586 0.061496947 0.0032483328 -0.004151895 -0.018624349 -0.02023362
0.06089131 -0.048940055 0.06347063 -0.07071177 0.08297078 0.026326045 -0.08534691 -0.02165338
0.043989718 0.07499182 0.048848152 0.011482814 -0.0011545899 -0.022455703 -0.025272666 -0.08679285
0.108956605 -0.056183416 0.061206814 0.0740485 -0.061432835 0.015615212 -0.02716402 0.080301374
0.002185086 -0.03274728 0.00021599233 0.064656936 0.041670226 0.0118515035 0.019859897 0.094923794
0.06670371 0.03835071 0.034163333 0.08029704 -0.010509693 0.036453765 0.007088813 -0.08785759
-0.0091158645 0.048004057 -0.011533639 0.08933246 0.034752794 -0.054976944 0.055606723 -0.05694951
0.095035926 0.07128199 -0.032599047 -0.050970417 0.0034756283 0.038903054 0.03816208 0.07228281
-0.054880906 -0.010581425 0.010738366 0.07526416 0.08115809 -0.06353165 -0.084105946 0.0014392927
-0.070547804 0.031122895 0.03195408 -0.015686627 -0.057602286 0.08732023 0.0682487 0.053160492
0.10715104 -0.01933465 -0.014395786 -0.046740327 0.07689253 -0.02036227 0.091596805 -0.072439864
0.074157365 0.09344304 -0.08466811 -0.04233406 0.11325977 -0.06457024 -0.061911132 0.01544185
-0.08067684 0.025370674 0.035778593 0.052496698 0.07271863 0.021337366 0.013069614 0.08903101
-0.022266855 0.08608109 -0.039550934 -0.033870187 0.040757064 -0.0031306788 0.004615129 0.06937083
00000000: 2cc9 353d e0c1 ebbc eb92 da3d 56c3 5b3d
00000010: 4c7f 17bd b0df 2e3d 04ac c7bc ad88 053b
00000020: c062 80bd c7b0 6dbd 5438 d83c f645 f03a
00000030: e20b 813d 46ea a93c da04 bbbb 1bf2 273d
00000040: c37a 583d 2723 2d3d 2b24 163d 39e4 7b3d
00000050: fbe1 543b 9f0c 88bb 1792 98bc fac0 a5bc
00000060: 2b69 793d 5e75 48bd e4fc 813d 55d1 90bd
00000070: 96ec a93d b8a9 d73c 5cca aebd 6e62 b1bc
00000080: 902e 343d 5095 993d 0015 483d 6a22 3c3c
00000090: 9c55 97ba 06f5 b7bc 9f08 cfbc 73c0 b1bd
000000a0: a424 df3d 9520 66bd ffb3 7a3d bda6 973d
000000b0: ffa0 7bbd f2d6 7f3c 1487 debc 0c75 a43d
000000c0: a933 0f3b 0322 06bd 007c 6239 db6a 843d
000000d0: 66ae 2a3d cf2c 423c 39b1 a23c 6867 c23d
000000e0: f49b 883d a215 1d3d daee 0b3d c672 a43d
000000f0: d930 2cbc 8b50 153d 4649 e83b aeee b3bd
00000100: b55a 15bc e79f 443d 97f7 3cbc f0f3 b63d
00000110: f258 0e3d 812f 61bd e0c3 633d e443 69bd
00000120: 32a2 c23d 4bfc 913d 9486 05bd 5bc6 50bd
00000130: 5ec7 633b cf58 1f3d d74f 1c3d 0309 943d
00000140: cdca 60bd b75d 2dbc f9ef 2f3c 1924 9a3d
00000150: 3636 a63d e21c 82bd bd3f acbd a6a6 bc3a
00000160: 5e7b 90bd 71f5 fe3c 48e2 023d 3e81 80bc
00000170: 60f0 6bbd f3d4 b23d f9c5 8b3d d1be 593d
00000180: 0172 db3d b363 9ebc 4edc 6bbc c972 3fbd
00000190: d579 9d3d c6ce a6bc 1b97 bb3d 5a5b 94bd
000001a0: d1df 973d 115f bf3d 7966 adbd 7b66 2dbd
000001b0: bdf4 e73d 673d 84bd 8796 7dbd d0ff 7c3c
000001c0: e639 a5bd 29d6 cf3c 938c 123d c706 573d
000001d0: 81ed 943d b3cb ae3c ef21 563c e455 b63d
000001e0: fb68 b6bc 484b b03d 2900 22bd 77bb 0abd
000001f0: e1f0 263d 132c 4dbb 823a 973b 4b12 8e3d

weight f4 [12, 128]
0.0775671 0.06059182 0.06931568 -0.045528658 0.024942083 0.05615734 -0.05246706 0.03614641
0.0058816625 0.008967645 -0.013208312 -0.10596793 -0.039037824 0.100543685 0.008471543 0.06227167
-0.070954286 0.03777272 0.082043715 0.021163775 0.07191101 -0.012452522 -0.06331024 -0.054807074
-0.059826434 0.09465988 0.11143594 -0.014247313 0.097970024 -0.029568544 0.0097685605 -0.022431428
0.021558236 -0.04178097 0.022146376 -0.0025571343 -0.05318086 -0.09012172 0.08585988 -0.10688238
-0.084966585 -0.08303991 -0.009539626 0.08646834 0.02410433 -0.013206832 0.062281545 0.087593175
0.030823918 -0.0066531315 0.08123467 0.060670596 -0.08163563 -0.042359635 0.021728365 0.029222306
0.005710164 -0.08529658 -0.09452135 -0.0058256076 -0.07979075 -0.042450484 0.041105017 0.053770732
-0.025191389 -0.08254787 0.03866551 -0.044461947 -0.03316593 -9.6383505e-05 0.01434058 -0.09089627
0.00546719 0.103206314 -0.080139026 -0.06034175 -0.02364197 -0.050489847 -0.009556814 -0.05058009
0.06387862 0.06568929 0.059809327 -0.060827784 -0.098000094 -0.045815922 -0.07326887 0.026139282
0.006941585 -0.019334355 0.049059924 -0.06436047 0.07797228 -0.05055214 -0.0007637346 0.07196446
0.035138723 0.023650123 0.015880859 -0.050101083 -0.019214038 0.062797055 0.09118342 0.012236624
0.054693017 -0.094876535 0.026560372 -0.012545277 0.06881422 0.060591236 0.08220089 0.033070024
0.08401599 -0.10318204 0.011282712 -0.057878308 -0.022371965 -0.044562824 0.075689025 0.025757432
-0.07464816 -0.011918655 -0.027343305 0.014440136 -0.00034880626 -0.06341257 0.07526094 0.08630159
0.06252478 -0.06405064 0.028868971 0.031143486 -0.01419429 -0.0019319984 -0.06063686 0.052933604
0.061321445 0.06403739 -0.0917108 -0.017854802 0.0830738 0.06448311 -0.0047668316 0.04625447
0.06114808 0.030596353 0.021486033 -0.05150224 0.022401826 -0.022698458 0.06801107 0.04826238
-0.059005287 -0.06301035 0.023697417 0.054617964 0.025593689 -0.018942209 -0.09656984 0.053268068
0.082061395 0.083871506 0.058333114 0.061020877 0.09994056 0.008924443 -0.032891907 -0.047238518
0.10351726 -0.06714499 0.050969496 -0.06662279 0.023701528 0.03783478 0.083540894 -0.09997328
-0.109460264 -0.096553236 0.07170165 -0.028004734 -0.008709591 0.019187216 -0.027203906 -0.10245396
-0.07615138 0.021606788 -0.05329974 -0.018027095 0.02200599 -0.039194506 0.08485211 -0.028940054
0.025266513 0.053455193 -0.027259687 -0.09550497 -0.07380411 0.014503689 0.04491736 0.043951467
-0.07328066 -0.06778868 0.002416728 0.060523696 0.030514961 -0.049509134 0.026389102 -0.06495037
0.038767416 -0.10456657 0.07550836 -0.079819284 0.05151092 0.021472106 -0.040016785 0.023461953
0.046069153 -0.0359369 0.10507504 -0.049672373 -0.07096525 -0.03469422 0.09971522 0.04875733
0.015204929 0.025808303 -0.019497413 0.08996434 0.050858058 0.039097738 -0.10069111 0.028772147
0.02271558 0.017873032 -0.015175421 0.038870912 0.066362955 -0.08943143 4.7356676e-05 0.058176834
0.043253005 0.10613803 -0.046279132 -0.035969634 -0.0069040493 0.025097914 -0.072442986 -0.0819962
0.043583002 -0.075118095 0.014196428 0.042157043 -0.063508384 0.0032903072 0.091475815 0.08013681
00000000: 80db 9e3d 212f 783d 61f5 8d3d 427c 3abd
00000010: 5753 cc3c 3d05 663d b3e7 56bd 420e 143d
00000020: f6ba c03b 07ed 123c ad67 58bc b705 d9bd
00000030: 20e6 1fbd d9e9 cd3d 3acc 0a3c 9410 7f3d
00000040: 7b50 91bd 91b7 1a3d 8906 a83d a75f ad3c
00000050: 1446 933d aa05 4cbc cda8 81bd 627d 60bd
00000060: 900c 75bd 0add c13d 8738 e43d 906d 69bc
00000070: 82a4 c83d bb39 f2bc 500c 203c 1dc2 b7bc
00000080: e69a b03c 8622 2bbd 516c b53c 9895 27bb
00000090: 2cd4 59bd bd91 b8bd 4ed7 af3d 26e5 dabd
000000a0: f602 aebd d410 aabd 174c 1cbc 5016 b13d
000000b0: 7276 c53c 7861 58bc ef1a 7f3d 0d64 b33d
000000c0: 7182 fc3c 8302 dabb 5d5e a63d bb81 783d
000000d0: 9530 a7bd 4c81 2dbd afff b13c 9e63 ef3c
000000e0: 541c bb3b f9af aebd 6994 c1bd bde4 bebb
000000f0: 5569 a3bd 8fe0 2dbd bc5d 283d b33e 5c3d
00000100: 2c5e cebc dc0e a9bd ba5f 1e3d bb1d 36bd
00000110: 00d9 07bd 8021 cab8 c1f4 6a3c d327 babd
00000120: 1d26 b33b d55d d33d ee1f a4bd e928 77bd
00000130: ceac c1bc 71ce 4ebd 2f94 1cbc 122d 4fbd
00000140: cbd2 823d 1b88 863d a0fa 743d 8e26 79bd
00000150: 46b4 c8bd 7aa9 3bbd fd0d 96bd 0c22 d63c
00000160: 3c76 e33b 1563 9ebc 0ff3 483d 6ccf 83bd
00000170: eeaf 9f3d c30f 4fbd 5d35 48ba 1a62 933d
00000180: 9fed 0f3d e7bd c13c 9318 823c cb36 4dbd
00000190: c266 9dbc be9b 803d 5fbe ba3d 1f7c 483c
000001a0: c905 603d a14e c2bd 2395 d93c b58a 4dbc
000001b0: 78ee 8c3d 842e 783d f158 a83d 6f74 073d
000001c0: 9310 ac3d 1b51 d3bd 20db 383c ce11 6dbd
000001d0: 6945 b7bc 8287 36bd d902 9b3d 4001 d33c
000001e0: 22e1 98bd 7646 43bc 11ff dfbc 5296 6c3c
000001f0: fcdf b6b9 73de 81bd 6822 9a3d e3be b03d
00000200: fe0c 803d fb2c 83bd 9f7e ec3c a020 ff3c
00000210: 2b8f 68bc 1c3b fdba 5b5e 78bd e8d0 583d
00000220: 322c 7b3d 0926 833d dfd2 bbbd 3c44 92bc
00000230: 9922 aa3d b90f 843d 1533 9cbb 5475 3d3d
00000240: 6976 7a3d 34a5 fa3c 7a03 b03c 03f4 52bd
00000250: 0984 b73c 1ef2 b9bc 6349 8b3d c6ae 453d
00000260: 87af 71bd 920b 81bd 1621 c23c 16b7 5f3d
00000270: dba9 d13c b12c 9bbc 69c6 c5bd 9e2f 5a3d
00000280: ce0f a83d d3c4 ab3d b4ee 6e3d 07f1 793d
00000290: a3ad cc3d d437 123c aab9 06bd 2d7d 41bd
000002a0: db00 d43d 5083 89bd 64c5 503d 8871 88bd
000002b0: b529 c23c a4f8 1a3d 7d17 ab3d cbbe ccbd
000002c0: b42c e0bd b4bd c5bd 51d8 923d 2f6a e5bc
000002d0: acb2 0ebc 822e 9d3c bada debc 62d3 d1bd
000002e0: 41f5 9bbd b800 b13c d450 5abd 8fad 93bc
000002f0: e845 b43c 6b8a 20bd f1c6 ad3d b113 edbc
00000300: b8fb ce3c d5f3 5a3d b54f dfbc 1c98 c3bd
00000310: 9c26 97bd e1a0 6d3c 44fb 373d 7406 343d
00000320: 2c14 96bd cbd4 8abd f861 1e3b b2e7 773d
00000330: 83fa f93c 17ca 4abd f52d d83c b304 85bd
00000340: 95ca 1e3d ff26 d6bd 21a4 9a3d 4b78 a3bd
00000350: 1dfd 523d 45e6 af3c a4e8 23bd 4833 c03c
00000360: 02b3 3c3d 9232 13bd 9531 d73d 4275 4bbd
00000370: 3b56 91bd 871b 0ebd 7e37 cc3d c4b5 473d
00000380: 181e 793c ef6b d33c 0ab9 9fbc 393f b83d
00000390: 8a50 503d f324 203d 2437 cebd 91b3 eb3c
000003a0: 0616 ba3c 776a 923c 54a2 78bc 1b37 1f3d
000003b0: 4de9 873d d327 b7bd d8a0 4638 d54a 6e3d
000003c0: 102a 313d e55e d93d 308f 3dbd e554 13bd
000003d0: 5d3b e2bb 249a cd3c fd5c 94bd a0ed a7bd
000003e0: 1784 323d 84d7 99bd 2298 683c ddac 2c3d
000003f0: af10 82bd 32a2 573b ac57 bb3d c51e a43d

bias f4 [12]
0.039419223 -0.038298126 -0.0258179 0.056142278 -0.053388014 0.0844183 -0.058750845 0.024010865
-0.043340813 -0.049901523 0.0013402991 -0.08332969
00000000: 0d76 213d 7fde 1cbd 1080 d3bc 72f5 653d
00000010: 64ad 5abd 80e3 ac3d baa4 70bd 6fb2 c43c
00000020: 2386 31bd 8a65 4cbd faac af3a c2a8 aabd

weight f4 [128, 13]
0.20716764 0.12716588 0.17372228 0.037867777 -0.083704054 0.019487416 0.022613697 -0.078175314
0.18160163 0.20299931 -0.20238665 0.078813285 -0.18934111 0.2936776 -0.2988492 -0.097777516
0.23304181 0.25159836 0.16199577 0.25435495 0.1898311 -0.004036842 0.010794062 -0.06298502
0.06456702 0.15066645 -0.091469616 0.14198384 0.24350443 -0.01822367 -0.1572077 -0.10891285
0.21812254 0.11023777 -0.0011767903 -0.08789302 -0.19749562 0.11728842 0.08360088 0.13820635
-0.14072861 -0.23000029 -0.18827732 0.15005791 -0.102231525 -0.18254925 0.082845636 0.24431863
-0.049797747 0.120310694 0.13182853 -0.014492993 -0.015790543 0.21022522 -0.19145842 -0.19671741
-0.08408498 -0.126221 -0.079747476 -0.13453555 -0.064116456 -0.17809421 -0.25281128 0.058190685
-0.21383929 -0.084758416 -0.08358573 -0.05792742 0.0828353 -0.11336845 0.23586445 -0.028447973
-0.039450236 -0.21582614 -0.019369395 0.2613112 -0.21879153 0.18974997 0.18350703 -0.1508364
0.019313933 0.100277185 -0.05394781 0.27923536 0.23449065 -0.15980347 0.10728676 0.065590814
-0.21230035 -0.21507247 -0.17225815 0.048138995 -0.0731721 -0.28732407 -0.17751023 0.07407407
-0.16819842 -0.11726389 0.27195746 0.19252843 -0.14037997 0.151743 0.142574 0.18600684
-0.0146767385 0.030918106 0.19855452 -0.10221695 -0.11626146 0.23484688 0.07089172 0.24278085
0.15728231 -0.2359071 -0.05341564 -0.1892411 -0.14878498 0.14933017 0.07168508 -0.030141093
-0.16672131 -0.061025947 0.031994015 0.066924416 -0.15004428 -0.18113159 -0.19278607 0.0749321
0.16929184 0.17800751 -0.021462604 -0.24493322 0.26395205 0.13478561 -0.17352429 0.2187086
-0.22174452 -0.05284139 0.06967939 0.27580225 -0.053822353 -0.26673728 -0.22685167 0.076967485
0.286596 -0.14708531 -0.119393334 -0.10364904 -0.026747923 -0.24703 0.013149049 -0.09388644
-0.18320279 -0.21019118 0.07262081 0.12195539 -0.045014232 0.15332359 -0.1971919 -0.24969496
0.019224362 -0.29943097 -0.025161184 -0.0978855 -0.16199902 -0.098044865 0.13549072 0.07085828
-0.123254396 -0.2531229 0.20450528 0.21951929 0.23580328 0.041817814 -0.24508691 0.25096798
-0.019128168 -0.25507194 0.0640405 0.0339081 -0.11535938 0.14142753 -0.14192696 -0.055836
0.1649829 0.21064398 0.19952637 0.059378725 0.24800041 0.038810886 0.025589168 0.044443153
0.029531896 0.24752764 0.12462882 0.0738822 0.26462075 0.20184384 0.25724235 0.22983767
-0.054208077 0.022867119 -0.14746079 -0.27652693 -0.09552661 0.13797706 -0.07043068 0.1691894
-0.27079728 -0.2603077 -0.018886305 -0.013403423 0.14039776 0.21185017 0.17985258 -0.06540609
0.21124785 0.023858959 0.050265193 -0.021537123 0.22487499 -0.022191996 -0.2739372 0.10254913
0.1558595 0.22877719 0.27800483 0.13516171 0.26951694 -0.035456844 0.16140959 0.169943
-0.24640156 0.23284861 0.0674279 -0.0034874927 -0.25142625 0.16667657 0.039731506 0.2173172
-0.21129869 0.27062222 -0.059251916 0.08262318 -0.19555391 -0.060586642 0.108336136 -0.23691307
0.15198882 -0.010244273 0.028146625 -0.10413497 -0.17116092 -0.003439533 0.09113432 -0.16919985
00000000: c123 543e c637 023e 41e4 313e 3e1b 1b3d
00000010: 086d abbd 13a4 9f3c 5c40 b93c 611a a0bd
00000020: c7f5 393e 0ddf 4f3e 723e 4fbe dc68 a13d
00000030: a3e2 41be e95c 963e c302 99be 943f c8bd
00000040: 83a2 6e3e 80d1 803e 38e2 253e d03a 823e
00000050: 1563 423e 7c47 84bb 94d9 303c 4afe 80bd
00000060: b73b 843d 4e48 1a3e 6c54 bbbd 3664 113e
00000070: 3a59 793e ce49 95bc 0efb 20be b30d dfbd
00000080: 845b 5f3e 57c4 e13d 883e 9aba 4101 b4bd
00000090: 4b3c 4abe e934 f03d f036 ab3d f785 0d3e
000000a0: 291b 10be 3285 6bbe c5cb 40be c8a8 193e
000000b0: c35e d1bd 31ee 3abe f9aa a93d aa2e 7a3e
000000c0: b9f8 4bbd 7465 f63d 0ffe 063e 0574 6dbc
000000d0: 2b5b 81bc 4845 573e ad0d 44be 4a70 49be
000000e0: bf34 acbd 1440 01be a552 a3bd b0c3 09be
000000f0: 7d4f 83bd 545e 36be 7b70 81be 5b59 6e3d
00000100: b0f8 5abe d295 adbd ff2e abbd 4d45 6dbd
00000110: 8ea5 a93d b82d e8bd 7386 713e b90b e9bc
00000120: 9296 21bd 8701 5dbe 91ac 9ebc 95ca 853e
00000130: e30a 60be d14d 423e 44e9 3b3e db74 1abe
00000140: 4138 9e3c 205e cd3d 61f8 5cbd f0f7 8e3e
00000150: 511e 703e 85a3 23be 29b9 db3d 7a54 863d
00000160: 4365 59be f53b 5cbe 7164 30be 652d 453d
00000170: 41db 95bd 241c 93be 3ec5 35be 25b4 973d
00000180: 353c 2cbe 0d28 f0bd 023e 8b3e 2c26 453e
00000190: c4bf 0fbe 8462 1b3e ebfe 113e 9478 3e3e
000001a0: b476 70bc f847 fd3c e051 4b3e 1f57 d1bd
000001b0: 7d1a eebd b37b 703e ae2f 913d 8b9b 783e
000001c0: 9d0e 213e a191 71be 5cca 5abd 6bc8 41be
000001d0: 175b 18be 02ea 183e a1cf 923d 74ea f6bc
000001e0: feb8 2abe 58f6 79bd 280c 033d ab0f 893d
000001f0: 35a5 19be 8f7a 39be b669 45be 0076 993d
00000200: d75a 2d3e 9a47 363e 58d2 afbc c6cf 7abe
00000210: b924 873e 3d05 0a3e 5ab0 31be 26f5 5f3e
00000220: ff10 63be 3770 58bd 11b4 8e3d f435 8d3e
00000230: d474 5cbd ca91 88be ce4b 68be 21a1 9d3d
00000240: b6bc 923e 889d 16be 7e84 f4bd f345 d4bd
00000250: 761e dbbc 6ff5 7cbe 1c6f 573c 8947 c0bd
00000260: 8399 3bbe 5b3c 57be 38ba 943d bfc3 f93d
00000270: d860 38bd dc00 1d3e acec 49be 09b0 7fbe
00000280: 697c 9d3c 044f 99be d41e cebc 3178 c8bd
00000290: 12e3 25be bfcb c8bd 14be 0a3e 251e 913d
000002a0: cd6c fcbd 5399 81be d569 513e aac9 603e
000002b0: 6a76 713e 2849 2b3d 10f8 7abe e07e 803e
000002c0: adb2 9cbc ca98 82be aa27 833d 38e3 0a3d
000002d0: 8a41 ecbd 61d2 103e 4d55 11be 4ab4 64bd
000002e0: 47f1 283e 0eb3 573e a450 4c3e 1b37 733d
000002f0: d2f3 7d3e 2af8 1e3d 60a0 d13c 060a 363d
00000300: e0ec f13c e377 7d3e 653d ff3d 8d4f 973d
00000310: 5f7c 873e 27b0 4e3e 45b5 833e 915a 6b3e
00000320: 4a09 5ebd d353 bb3c f6ff 16be f094 8dbe
00000330: 75a3 c3bd dc49 0d3e f63d 90bd fc3f 2d3e
00000340: f1a5 8abe 0d47 85be 74b7 9abc 089a 5bbc
00000350: 6ec4 0f3e 40ef 583e 462b 383e a1f3 85bd
00000360: 5b51 583e dd73 c33c e0e2 4d3d 9f6e b0bc
00000370: a145 663e fdcb b5bc 7f41 8cbe 4705 d23d
00000380: a299 1f3e 9144 6a3e a656 8e3e d567 0a3e
00000390: 20fe 893e 323b 11bd 8e48 253e 8a05 2e3e
000003a0: b150 7cbe de6f 6e3e a417 8a3d 6b8e 64bb
000003b0: f1ba 80be 43ad 2a3e 81bd 223d 6688 5e3e
000003c0: af5e 58be ff8e 8a3e 23b2 72bd 5736 a93d
000003d0: 493f 48be b329 78bd 56df dd3d 5799 72be
000003e0: f5a2 1b3e 98d7 27bc c093 e63c b744 d5bd
000003f0: cf44 2fbe ca69 61bb a1a4 ba3d ba42 2dbe

bias f4 [128]
0.09941584 0.09816071 0.18563426 0.01949385 0.18799448 0.102052785 -0.22948478 -0.2530552
-0.18633878 0.13160008 0.022908574 0.1635178 -0.18535712 -0.23795211 0.2872553 0.15674053
0.063884445 -0.1603614 0.010483288 -0.2390628 0.07032376 -0.26051462 -0.26198342 0.15913466
0.23910092 0.033527236 0.20466216 0.021572966 -0.08472123 0.13910104 -0.079026185 -0.002526503
-0.255045 0.17987135 0.27209398 0.16326052 0.061393782 0.19694296 -0.0023413626 -0.0003932455
-0.23019342 -0.14158626 -0.1872314 -0.23518577 0.15677398 0.2805184 0.21921106 0.056808908
0.07770628 -0.10328518 0.02659814 0.06309258 -0.002499654 0.1712303 -0.058815386 -0.25422496
0.10731123 -0.22145697 0.106527 0.19702972 0.045594066 0.061644368 -0.11947854 -0.19645548
-0.11677356 -0.15538615 0.13416679 0.058682043 -0.020170242 0.05049056 0.21288481 0.11528692
0.04050515 0.2773026 -0.15234189 0.020954117 -0.064868465 -0.09047369 -0.050504997 -0.0406397
-0.032699756 0.028215755 -0.22055592 0.056336954 -0.07059131 0.008310087 -0.24148315 -0.19933607
0.18117133 -0.23604499 0.12038541 0.2791143 0.27679795 0.14652103 0.078093715 -0.22365363
-0.020912377 0.017980354 -0.21475878 -0.14598751 0.016578892 -0.17485483 -0.10748582 0.24013767
0.07300288 -0.06433683 -0.00404021 -0.20526963 0.15565434 0.015287962 -0.054385442 0.2610997
-0.29380897 -0.13774568 -0.019689405 -0.009245621 -0.06993057 0.046517696 -0.13654366 0.076108366
0.16842228 0.13565752 -0.17856403 0.02929233 0.18594337 0.04242443 0.14649434 0.050928425
00000000: 889a cb3d 7b08 c93d e816 3e3e 91b1 9f3c
00000010: a081 403e 0d01 d13d 0ffe 6abe 7490 81be
00000020: 98cf 3ebe 2cc2 063e c3aa bb3c 3671 273e
00000030: 42ce 3dbe b8a9 73be 2013 933e 9780 203e
00000040: d9d5 823d c735 24be 19c2 2b3c e1cc 74be
00000050: e705 903d 2c62 85be b122 86be 32f4 223e
00000060: dfd6 743e db53 093d f592 513e cab9 b03c
00000070: 5382 adbd 8170 0e3e 7bd8 a1bd b093 25bb
00000080: 4295 82be 3230 383e e74f 8b3e c42d 273e
00000090: 0c78 7b3d 6aab 493e 8c71 19bb 842c ceb9
000000a0: d3b7 6bbe fdfb 10be 97b9 3fbe 8ad4 70be
000000b0: 5c89 203e 1ca0 8f3e dd78 603e 75b0 683d
000000c0: 7824 9f3d 2e87 d3bd 58e4 d93c af36 813d
000000d0: 3cd1 23bb ff56 2f3e 67e8 70bd c629 82be
000000e0: fdc5 db3d 9ec5 62be d42a da3d 29c2 493e
000000f0: d8c0 3a3d ce7e 7c3d 2ab1 f4bd a02b 49be
00000100: fa26 efbd 8c1d 1fbe 0563 093e 955c 703d
00000110: 103c a5bc 30cf 4e3d 7afe 593e 8c1b ec3d
00000120: bae8 253d 9bfa 8d3e 83ff 1bbe f8a7 ab3c
00000130: c2d9 84bd 454a b9bd 54de 4ebd d075 26bd
00000140: 2ef0 05bd ba24 e73c 69d9 61be 94c1 663d
00000150: 2d92 90bd 0827 083c 5c47 77be c11e 4cbe
00000160: fa84 393e c7b5 71be a08c f63d 12e8 8e3e
00000170: 76b8 8d3e 9c09 163e 99ef 9f3d 7505 65be
00000180: 6f50 abbc 894b 933c bae9 5bbe c07d 15be
00000190: 75d0 873c 250d 33be 8721 dcbd a6e6 753e
000001a0: 8982 953d 07c3 83bd bd63 84bb 3432 52be
000001b0: da63 1f3e 5c7a 7a3c 45c3 5ebd dcae 853e
000001c0: 216e 96be 340d 0dbe ad4b a1bc f27a 17bc
000001d0: c237 8fbd 5789 3e3d 1ad2 0bbe b4de 9b3d
000001e0: e476 2c3e cee9 0a3e 7dd9 36be 78f6 ef3c
000001f0: f067 3e3e 3dc5 2d3d 9d02 163e 539a 503d

weight f4 [128, 128]
-0.06405695 -0.05029729 -0.0134954415 0.019814366 0.043778807 -0.036819257 -0.0037610633 -0.075333595
0.051877167 -0.024825092 0.019903686 0.06499161 -0.055183083 0.03149521 -0.096016794 -0.05922072
0.054023933 0.0385763 0.02747555 -0.062140178 0.04773969 0.08649921 0.077963114 0.049272228
-0.05777204 -0.07121954 0.031819206 0.021410495 -0.0520394 -0.061286353 -0.03898354 -0.06360718
0.004481629 0.015189879 -0.023127194 0.083933614 -0.054546762 -0.0918512 -0.03772666 -0.040401727
-0.014468586 -0.0071624117 0.06766409 0.009132291 -0.016021118 0.05912482 0.014668535 0.06786872
0.02163145 -0.028935514 -0.029088948 0.10261758 -0.02462856 -0.013064856 -0.030501392 0.014961938
0.0023010257 -0.052692756 0.10894275 -0.06015248 -0.042369395 -0.046420872 0.08400386 -0.007865676
0.046474274 0.06718068 -0.06015007 -0.024762845 -0.04477407 0.056228667 0.105835766 0.044544015
0.07966103 -0.078789726 0.03589091 0.03562773 0.040530212 0.08646971 -0.008394249 0.044680852
-0.055304673 0.036413003 0.048731025 0.061661754 -0.041489504 -0.026677465 0.09297101 0.0063026175
0.03431786 -0.052342527 0.06466921 0.10496355 0.032849383 0.066601254 0.08126847 0.049047098
-0.06713563 -0.059471894 -0.06514066 -0.0054340386 -0.09794984 -0.026820535 -0.0064905435 0.050414875
0.03147673 -0.03162364 -0.033426393 0.049107246 0.10630401 -0.0139163155 0.062122546 0.0029185247
0.056899633 0.068094656 -0.021364553 0.04679763 0.0024187667 -0.011872894 -0.003025255 0.048969537
-0.049363423 -0.02020336 0.031272184 -0.0027695452 -0.094792955 -0.06061204 -0.03437223 0.026035689
-0.07230112 -0.01820761 0.07592163 0.082039416 0.012560136 0.026197933 0.06003215 -0.031234777
0.05438515 -0.0050808857 -0.02182521 -0.031464454 0.039313134 -0.024378704 -0.034545843 -0.05428456
-0.027214782 -0.082070895 0.041832138 0.06987517 0.08855481 -0.010823202 -0.052755974 -0.0907671
-0.023619842 -0.08204094 0.07961823 -0.08606602 0.04712703 -0.069884084 0.08446159 0.03488924
-0.04889568 0.011682847 0.01420087 -0.011947536 -0.06261038 -0.01509559 0.006038774 -0.03138208
-0.014482196 0.011466786 -0.04531828 0.05165217 0.042488106 -0.073506154 0.025318036 0.071318604
-0.036274135 0.015441359 0.05186919 -0.020801926 0.09328953 0.041646466 -0.07317484 -0.0076221484
0.0062972093 0.004194816 0.007538688 -0.005145178 -0.09415933 -0.026348813 -0.05875453 0.03590425
-0.022091769 -0.051878754 0.010554599 -0.0041022217 -0.07469701 0.012919195 0.024262063 0.0045571313
-0.031616557 -0.09078595 -0.047829777 -0.066199735 0.00537444 -0.018305618 0.002517981 0.023284847
-0.072510704 0.016367974 0.08761078 0.02132257 -0.059421252 -0.053501774 0.07011723 0.005831727
0.0025127702 0.002797306 -0.057209753 0.06167443 -0.012698282 0.021339849 0.0356581 0.045522153
0.085513145 0.01239411 -0.07091026 -0.060570706 0.008678032 -0.05597119 -0.033155583 0.04500012
-0.082867846 -0.06237442 0.052624106 -0.009954456 0.08114599 0.06809112 -0.015371039 -0.03754935
0.002208622 0.010561571 0.02250461 0.065435775 0.07053598 0.03585553 -0.03184711 0.04915957
0.0769141 -0.039197143 0.0123057 -0.048780914 0.011111582 0.013678723 0.0862226 -0.012104036
00000000: 4a30 83bd 8804 4ebd fc1b 5dbc bd51 a23c
00000010: 6851 333d cacf 16bd 2c7c 76bb 8048 9abd
00000020: 277d 543d fe5d cbbc 0e0d a33c 521a 853d
00000030: a807 62bd 1f01 013d 74a4 c4bd 6d91 72bd
00000040: 3348 5d3d 2f02 1e3d 6814 e13c b386 7ebd
00000050: b18a 433d 7f26 b13d 20ab 9f3d add1 493d
00000060: 60a2 6cbd 8ddb 91bd db54 023d 1065 af3c
00000070: 4427 55bd 6607 7bbd 34ad 1fbd 7b44 82bd
00000080: a1da 923b f8de 783c 3e75 bdbc 63e5 ab3d
00000090: 6d6c 5fbd 7b1c bcbd 4587 1abd 487c 25bd
000000a0: a60d 6dbc aab2 eabb 7893 8a3d 9b9f 153c
000000b0: b83e 83bc de2c 723d 4c54 703c c1fe 8a3d
000000c0: 7034 b13c 2c0a edbc f24b eebc 2a29 d23d
000000d0: d5c1 c9bc fa0d 56bc 0ede f9bc eb22 753c
000000e0: cecc 163b 5cd4 57bd 601d df3d 7262 76bd
000000f0: 888b 2dbd d023 3ebd 370a ac3d 09df 00bc
00000100: cf5b 3e3d 0696 893d eb5f 76bd 73db cabc
00000110: 0465 37bd 0850 663d 6cc0 d83d c973 363d
00000120: 5225 a33d 825c a1bd 5902 133d 62ee 113d
00000130: 0203 263d 0817 b13d 0888 09bc 4503 373d
00000140: 2787 62bd cd25 153d 2f9a 473d 0991 7c3d
00000150: e6f0 29bd b38a dabc 9667 be3d 3086 ce3b
00000160: e290 0c3d 1e65 56bd 4a71 843d 21f7 d63d
00000170: 138d 063d 3d66 883d 1570 a63d 9ce5 483d
00000180: 687e 89bd cd98 73bd 7768 85bd 0510 b2bb
00000190: ed99 c8bd bdb6 dbbc a0ae d4bb d47f 4e3d
000001a0: beed 003d ca87 01bd 1dea 08bd ae24 493d
000001b0: ebb5 d93d 4201 64bc 3674 7e3d b844 3f3b
000001c0: 970f 693d 3675 8b3d b704 afbc dfae 3f3d
000001d0: 2c84 1e3b 8786 42bc 5b43 46bb 4894 483d
000001e0: 4d31 4abd 8481 a5bc 4317 003d 4281 35bb
000001f0: cf22 c2bd 5544 78bd e5c9 0cbd cc48 d53c
00000200: 9c12 94bd 2028 95bc cd7c 9b3d 4804 a83d
00000210: 07c9 4d3c 0c9d d63c 46e4 753d 13e0 ffbc
00000220: f7c2 5e3d 8f7d a6bb c8ca b2bc dfe0 00bd
00000230: cf06 213d d9b5 c7bc f17f 0dbd 7d59 5ebd
00000240: 89f1 debc c914 a8bd 2d58 2b3d b71a 8f3d
00000250: 395c b53d cd53 31bc a616 58bd 1ae4 b9bd
00000260: 667e c1bc 1505 a8bd e20e a33d 6243 b0bd
00000270: 4608 413d 631f 8fbd 33fa ac3d 05e8 0e3d
00000280: d646 48bd 6969 3f3c c4aa 683c 99bf 43bc
00000290: df39 80bd 7e53 77bc e8e0 c53b 7f8a 00bd
000002a0: bc46 6dbc 30df 3b3c a99f 39bd 3a91 533d
000002b0: 0208 2e3d 658a 96bd c567 cf3c 7d0f 923d
000002c0: 3094 14bd c1fd 7c3c ca74 543d cd68 aabc
000002d0: 950e bf3d 7c95 2a3d b1dc 95bd 37c3 f9bb
000002e0: d258 ce3b ab74 893b 1907 f73b e298 a8bb
000002f0: 9bd6 c0bd 77d9 d7bc 97a8 70bd 5610 133d
00000300: ccf9 b4bc d17e 54bd 32ed 2c3c ee6b 86bb
00000310: bffa 98bd 08ab 533c 3cc1 c63c fd53 953b
00000320: 5d80 01bd fced b9bd 28e9 43bd ba93 87bd
00000330: 121c b03b aaf5 95bc b604 253b ddbf be3c
00000340: 7e80 94bd 2116 863c 486d b33d acac ae3c
00000350: b363 73bd ad24 5bbd 9f99 8f3d 1218 bf3b
00000360: 4aad 243b 0253 373b c654 6abd 549e 7c3d
00000370: 740c 50bc e8d0 ae3c 3a0e 123d 7075 3a3d
00000380: 8421 af3d aa10 4b3c 6639 91bd fd18 78bd
00000390: 4e2e 0e3c 0c42 65bd 26ce 07bd 0c52 383d
000003a0: 9eb6 a9bd 527c 7fbd 608c 573d 0418 23bc
000003b0: de2f a63d 5b73 8b3d cfd6 7bbc 59cd 19bd
000003c0: 87be 103b 710a 2d3c 965b b83c 3103 863d
000003d0: 2b75 903d 40dd 123d 1d72 02bd 8c5b 493d
000003e0: 2485 9d3d 2f8d 20bd d99d 493c 7fce 47bd
000003f0: 5a0d 363c b91c 603c 7995 b03d 0250 46bc

bias f4 [128]
0.048126288 -0.014658772 0.10478424 0.066045515 -0.012894817 -0.05032512 -0.047836054 0.048078977
-0.0018509619 0.09660292 0.067315064 -0.0050498247 0.04939913 0.04378766 0.03258366 -0.082992405
0.05926559 0.08754693 0.029542655 -0.024132347 0.06710926 0.08203718 0.065602474 0.08196001
0.029778227 -0.0406095 -0.017557142 0.068112224 -0.00063390523 -0.03487631 -0.04771896 -0.04690487
0.05501831 0.07365749 0.027524967 -0.0503951 0.012609568 -0.04812688 -0.044043124 0.067914315
0.004192749 0.0014210023 0.0078349095 -0.0053371238 0.05241715 -0.05119698 0.024630634 -0.054266013
-0.004806224 -0.059531856 0.009771834 0.01824018 0.07946633 -0.046476357 -0.05050013 0.05090677
-0.046062246 -0.04018122 0.08636226 -0.032924365 -0.0457711 -0.067967094 0.0448756 0.043609936
0.00085150223 0.017339207 0.045552596 0.044008873 0.043352727 -0.035281815 -0.08144112 -0.06729061
-0.054344505 0.050295494 0.007296549 0.06493038 0.09244671 0.02634181 0.044434406 0.034484874
-0.08853274 -0.035101477 0.049609054 0.09533347 -0.059129715 0.04370234 -0.016283812 0.06671457
0.033060763 -0.06174091 0.04146706 0.0049968828 -0.012744985 0.02486727 0.051385567 -0.028236879
-0.053411655 0.011812991 -0.030985067 0.054879576 -0.064927176 -0.016317308 0.04776518 0.07808287
0.09876623 0.056531277 -0.0112350155 0.09287742 -0.0012142777 0.047732767 0.052677535 -0.043074958
-0.058009088 0.102684796 -0.019292578 0.03706879 0.03647682 0.012318043 -0.008523382 0.0048776898
-0.060756605 -0.05972203 -0.04669581 0.031111432 0.006144601 -0.058786552 0.08964896 0.0015082889
00000000: 1220 453d 592b 70bc 1f99 d63d df42 873d
00000010: c844 53bc b721 4ebd bdef 43bd 76ee 443d
00000020: fa9b f2ba c0d7 c53d 7bdc 893d 0079 a5bb
00000030: be56 4a3d b05a 333d 7276 053d ecf7 a9bd
00000040: 7ac0 723d ce4b b33d 7003 f23c 33b1 c5bc
00000050: 9470 893d 1c03 a83d 975a 863d a6da a73d
00000060: 78f1 f33c 2656 26bd ffd3 8fbc 6c7e 8b3d
00000070: a92c 26ba 76da 0ebd f574 43bd 521f 40bd
00000080: e15a 613d bdd9 963d 0a7c e13c 186b 4ebd
00000090: 5d98 4e3c b120 45bd 9066 34bd a916 8b3d
000000a0: 5463 893b ed40 ba3a fe5d 003c 0ae3 aebb
000000b0: 5eb3 563d edb3 51bd 2fc6 c93c 0a46 5ebd
000000c0: 877d 9dbb add7 73bd 0b1a 203c 6e6c 953c
000000d0: 3ebf a23d fe5d 3ebd 39d9 4ebd 9e83 503d
000000e0: c4ab 3cbd 1095 24bd b2de b03d b3db 06bd
000000f0: 7a7a 3bbd 5532 8bbd 7acf 373d 55a0 323d
00000100: 5937 5f3a f40a 8e3c 5c95 3a3d a642 343d
00000110: a192 313d aa83 10bd 9aca a6bd a9cf 89bd
00000120: 5898 5ebd a602 4e3d e417 ef3b 38fa 843d
00000130: b354 bd3d c8ca d73c da00 363d 0340 0d3d
00000140: a750 b5bd 91c6 0fbd dd32 4b3d 323e c33d
00000150: 0032 72bd 3a01 333d a165 85bc a6a1 883d
00000160: b96a 073d 09e4 7cbd 5dd9 293d e4bc a33b
00000170: 57d0 50bc 72b6 cb3c ac79 523d 0751 e7bc
00000180: 2ec6 5abd 478b 413c 65d4 fdbc 68c9 603d
00000190: 8af8 84bd e0ab 85bc 6ca5 433d e9e9 9f3d
000001a0: f345 ca3d 578d 673d 1213 38bc 8436 be3d
000001b0: 6628 9fba 6f83 433d 66c4 573d 5e6f 30bd
000001c0: f09a 6dbd 684c d23d 780b 9ebc 72d5 173d
000001d0: b868 153d 9ed1 493c a8a5 0bbc 07d5 9f3b
000001e0: ebdb 78bd 169f 74bd 1b44 3fbd 67dd fe3c
000001f0: a658 c93b 2bca 70bd e099 b73d c7b1 c53a
